nn_weights/mnist_nn-32.onnx (onnx, 102934 bytes, 4 tensors)

sequential/dense_1/MatMul/ReadVariableOp:0 f4 [32, 10]
-0.24532194 1.3855656 0.7997833 -1.3346289 -0.22105391 0.35216498 0.045335084 0.922572
-1.5536436 -1.6959862 0.72174954 -0.8909217 -0.3733206 0.44674647 0.5689089 0.50081015
-0.8529929 -0.9339615 0.3225061 -0.39508158 -0.0033786017 -1.2459213 -0.682851 -0.79191935
0.25477883 -1.0757929 0.47063872 0.55265045 0.01305351 0.7545196 -0.6630892 0.1413643
0.16196015 -0.18352734 0.13277209 0.4349377 0.5151951 -0.8996866 0.6468044 -0.026077447
-1.0290513 0.35071298 0.108836375 0.9072921 0.03973407 -1.3799568 -1.0833943 0.33872867
0.26875466 0.18255284 -1.6505337 -1.8341627 -0.86812717 0.82864666 0.30749664 0.46501553
-2.4107985 0.084448025 -0.78365105 0.8440711 -0.05134307 0.19081251 -2.458101 0.8708692
-0.77064604 0.8667052 -0.032114457 0.44730723 -0.26851377 0.1484777 -2.0054388 0.88068724
0.80053157 -0.22725065 -0.62796634 0.679308 0.3513933 -0.632026 -0.70538056 0.13798253
-0.13794419 -0.11693816 0.6424105 -0.593683 0.8086514 -0.39877254 1.4288486 -0.28716415
-1.2073528 -1.6787367 -0.25519496 0.07360416 0.108063444 -2.1371458 1.1016442 -0.9595322
0.5130251 0.8046719 -0.6635996 -0.11163617 -0.027748194 0.43617135 0.23210834 -0.28621864
-1.3480949 -0.4686964 -0.23328726 -0.97682935 0.7311051 -0.05963508 0.4234622 0.17304684
-1.6294489 0.044204596 -0.76500094 1.0509465 1.1535069 -0.9133442 -0.96247494 -0.25339577
0.19237775 -0.7299268 0.054502677 -1.3869307 0.3848686 0.8141052 0.46533564 -0.8528744
0.9324676 -1.9566491 -0.7974122 1.0269855 0.11254946 0.17790654 0.68317693 -2.8984296
-1.2278843 0.0943022 -0.5671816 0.81358325 0.06387476 -0.77058697 0.87170833 0.08429701
-1.9379854 -0.8796368 -1.9508616 1.0895025 -0.19407862 0.30125892 -1.0222552 0.15400457
0.2013681 0.374589 -0.28428078 -0.07052805 0.3836158 -0.7461917 0.5656766 -0.6552432
-1.480553 -1.0551555 -0.4030122 0.7409396 -1.7944609 0.9239 0.66163474 0.19893125
-0.48233515 -0.41551727 -1.6358733 0.727982 -0.593855 -1.7520497 0.3505015 0.9487953
-0.50449145 0.7353667 0.26719755 0.2145095 0.42323375 -1.5847288 -0.24363717 -0.8065441
0.4919473 -0.4624887 -0.47080025 -0.2800598 0.14491348 0.26019737 0.6898835 -1.1595453
0.6890565 -0.16426183 -0.6340086 -0.3146619 0.90638506 -1.3441077 -0.23984498 0.12490095
-0.6722799 -0.8428379 -0.15687628 -0.17257479 0.24803664 0.07169889 -0.515294 -0.02708245
0.6242742 0.59908605 0.3971513 -1.5492523 0.10431313 0.007714444 -2.06123 1.4607298
-1.3428826 1.4473052 -0.6552659 -0.59339005 0.877277 2.0011058 -1.0302896 0.56501436
-0.16784552 -0.20060576 0.22646649 1.242905 -1.896931 -1.0333954 1.1992272 -1.512366
1.2324499 0.822751 -1.9791167 -0.5597726 -1.6509292 0.8444642 -0.6994675 -0.565384
0.031209007 -0.14127693 1.2318429 -0.9426974 1.0994922 0.6311588 -1.036904 -0.7796433
-1.9852196 0.42377874 -0.2932962 0.46250978 -0.7624638 -1.6444873 0.35814896 0.40739357
00000000: ad35 7bbe 375a b13f 99be 4c3f 1fd5 aabf
00000010: f55b 62be f84e b43e 48b1 393d ae2d 6c3f
00000020: cbdd c6bf 1316 d9bf 94c4 383f 7213 64bf
00000030: e123 bfbe f4bb e43e 03a4 113f 1835 003f
00000040: be5d 5abf 1a18 6fbf 851f a53e 2248 cabe
00000050: 886b 5dbb 597a 9fbf 53cf 2ebf 3abb 4abf
00000060: 5f72 823e 95b3 89bf 8ff7 f03e 807a 0d3f
00000070: 64de 553c 3228 413f 37c0 29bf cec1 103e
00000080: e2d8 253e 97ee 3bbe 68f5 073e 27b0 de3e
00000090: d3e3 033f dc51 66bf f994 253f 5fa0 d5bc
000000a0: f4b7 83bf a790 b33e 9be5 de3d 4c44 683f
000000b0: 31c0 223d 6da2 b0bf aaac 8abf d86d ad3e
000000c0: 369a 893e 22ef 3a3e b044 d3bf d8c5 eabf
000000d0: 953d 5ebf 3022 543f 3370 9d3e 8416 ee3e
000000e0: 864a 1ac0 16f3 ac3d 5b9d 48bf 0b15 583f
000000f0: 1c4d 52bd 5b64 433e 8751 1dc0 49f1 5e3f
00000100: 0f49 45bf 64e0 5d3f 738a 03bd 7405 e53e
00000110: a37a 89be 8a0a 183e 1c59 00c0 b874 613f
00000120: a3ef 4c3f 65b4 68be 67c2 20bf 21e7 2d3f
00000130: d3e9 b33e 75cc 21bf d293 34bf 4b4b 0d3e
00000140: 3e41 0dbe 467d efbd 0475 243f 9cfb 17bf
00000150: c703 4f3f ea2b ccbe 83e4 b63f 2e07 93be
00000160: 898a 9abf d8e0 d6bf eaa8 82be c7bd 963d
00000170: 5e50 dd3d ffc6 08c0 ad02 8d3f e7a3 75bf
00000180: 9d55 033f fafe 4d3f aae1 29bf 81a1 e4bd
00000190: 2e50 e3bc da51 df3e cfad 6d3e 408b 92be
000001a0: 608e acbf f9f8 efbe dbe2 6ebe 7d11 7abf
000001b0: b429 3b3f ea43 74bd 0ad0 d83e 3133 313e
000001c0: c891 d0bf e10f 353d 1ad7 43bf 6a85 863f
000001d0: 1da6 933f edd0 69bf c264 76bf 17bd 81be
000001e0: acfe 443e 7cdc 3abf 333e 5f3d f286 b1bf
000001f0: 7f0d c53e 3369 503f 7940 ee3e fa55 5abf
00000200: 32b6 6e3f 7a73 fabf 3523 4cbf 4374 833f
00000210: 5580 e63d 222d 363e afe4 2e3f df7f 39c0
00000220: 502b 9dbf 8321 c13d d032 11bf fe46 503f
00000230: c5d0 823d 3045 45bf 4728 5f3f e9a3 ac3d
00000240: e80f f8bf e12f 61bf d5b5 f9bf d174 8b3f
00000250: 8cbc 46be 9c3e 9a3e 42d9 82bf 60b3 1d3e
00000260: 7033 4e3e 21ca bf3e 408d 91be 0371 90bd
00000270: 4a69 c43e 6b06 3fbf 2fd0 103f 05be 27bf
00000280: c382 bdbf 560f 87bf 9d57 cebe 38ae 3d3f
00000290: e5b0 e5bf b684 6c3f e560 293f a2b4 4b3e
000002a0: a2f4 f6be aebe d4be 4c64 d1bf 075d 3a3f
000002b0: e206 18bf 2a43 e0bf ef74 b33e 40e4 723f
000002c0: 5a26 01bf fe40 3c3f 1ece 883e 61a8 5b3e
000002d0: 18b2 d83e 65d8 cabf 067c 79be ad79 4ebf
000002e0: 84e0 fb3e 52cb ecbe bb0c f1be 0064 8fbe
000002f0: 3364 143e 9738 853e 349c 303f fb6b 94bf
00000300: 0266 303f 4134 28be 634e 22bf 5d1b a1be
00000310: da08 683f b90b acbf ec99 75be 12cc ff3d
00000320: 891a 2cbf 3ac4 57bf 2da4 20be 72b7 30be
00000330: 51fd 7d3e ded6 923d 4fea 03bf 04dc ddbc
00000340: 6fd0 1f3f b45d 193f 6a57 cb3e e64d c6bf
00000350: 1fa2 d53d 72c9 fc3b 31eb 03c0 32f9 ba3f
00000360: 94e3 abbf 4c41 b93f 82bf 27bf 69e8 17bf
00000370: 3a95 603f 1e12 0040 88e0 83bf c8a4 103f
00000380: b2df 2bbe 996b 4dbe d5e6 673e 8317 9f3f
00000390: a3ce f2bf 4d46 84bf 4780 993f 3695 c1bf
000003a0: ebc0 9d3f cf9f 523f b253 fdbf 424d 0fbf
000003b0: a651 d3bf ce2e 583f 4d10 33bf 01bd 10bf
000003c0: 08aa ff3c e6aa 10be 07ad 9d3f 9e54 71bf
000003d0: 29bc 8c3f a093 213f 45b9 84bf b496 47bf
000003e0: ad1b febf 87f9 d83e eb2a 96be 15ce ec3e
000003f0: d430 43bf 8f7e d2bf 4d5f b73e e495 d03e

sequential/dense_1/BiasAdd/ReadVariableOp:0 f4 [10]
-0.19763665 0.22128384 -0.11646288 -0.19174545 0.27028164 0.30990148 0.086879864 0.12034429
-0.41140312 0.016686467
00000000: 4361 4abe 3b98 623e 1784 eebd eb58 44be
00000010: 5b62 8a3e 68ab 9e3e 12ee b13d 1177 f63d
00000020: 6ea3 d2be 0fb2 883c

sequential/dense/MatMul/ReadVariableOp:0 f4 [784, 32]
-3.7252904e-34 5.091401e-34 3.7745431e-34 2.1578013e-34 4.15906e-34 5.034476e-35 -5.779125e-34 3.0823524e-34
-4.8560535e-34 2.035701e-34 1.6925243e-34 -1.7715925e-34 2.8104683e-34 3.3186694e-34 2.0935903e-34 1.6967903e-34
-2.3214636e-35 -1.5492097e-35 -5.497085e-34 -5.4773427e-34 5.1188077e-34 -2.546855e-34 1.2026786e-34 -3.0105714e-34
-1.470695e-34 5.918908e-34 -1.9659808e-34 4.5137537e-34 -1.4102387e-34 -7.941883e-35 4.333897e-34 3.702947e-34
-1.1070698e-34 -5.6266915e-34 -2.9154595e-34 3.1998352e-34 4.9229483e-34 5.0799163e-34 -5.829504e-34 -9.690417e-35
1.2912447e-34 -4.113569e-34 4.8926683e-34 2.5186654e-34 -2.5120872e-34 1.6714501e-34 2.0049213e-34 4.3817245e-34
3.0101768e-34 1.0901176e-34 3.5441191e-34 4.35656e-34 3.5348952e-34 -3.655247e-34 -2.4896167e-34 -5.0032506e-34
2.3053938e-34 4.9102915e-34 -2.348928e-34 -4.215132e-34 2.07406e-34 -2.4848754e-34 5.654455e-34 2.5473174e-34
-4.909923e-34 -8.421921e-35 1.5763163e-34 1.9143807e-34 6.2400337e-35 -3.0219646e-34 -2.217651e-34 5.071291e-34
4.349727e-34 8.337483e-35 -4.6197892e-35 -1.3432216e-35 3.960446e-34 5.31756e-35 -1.5076507e-35 3.6810968e-34
-2.7166046e-34 1.9354032e-34 -2.8840217e-34 4.5910493e-35 3.5327435e-34 -6.6415477e-35 -3.7843204e-34 -1.2505347e-34
2.6559859e-34 -4.3777237e-34 2.6923176e-34 3.900718e-34 -5.208362e-34 1.5256303e-34 2.7239076e-34 -4.7620566e-34
3.2076366e-34 4.6016196e-34 5.7779124e-34 -2.8327504e-34 1.3672934e-34 5.755817e-34 -4.5450117e-34 2.3658936e-34
2.6988763e-34 3.026453e-34 -2.2720942e-34 8.424589e-35 3.6513885e-34 3.6944364e-34 -1.612419e-35 7.1788946e-08
-5.725654e-34 1.5043899e-34 -5.0672297e-34 -4.6026073e-34 2.3486368e-34 -4.8492117e-34 5.302884e-34 -7.643295e-35
-2.852181e-35 1.6248899e-34 -6.0935194e-35 -3.2280342e-34 4.085516e-34 2.3142602e-35 -4.7632556e-34 -3.916487e-34
-1.5578405e-34 -3.1799935e-35 4.8024124e-34 -9.310703e-35 1.5422486e-35 -5.0627026e-35 -5.1897107e-34 -5.386049e-34
-1.9050976e-34 4.7910477e-34 -5.221739e-35 2.2349738e-34 -3.937571e-34 -2.740599e-34 -2.695269e-34 -3.5414922e-34
-5.333745e-34 -1.2817994e-34 -4.8608326e-34 -2.3916277e-34 -1.5411505e-34 4.760208e-34 4.4167823e-34 -2.908537e-34
3.6176948e-34 3.380814e-34 -4.3956656e-34 3.6430299e-34 -3.174945e-34 3.0245704e-34 1.1652565e-34 1.8335488e-34
3.768984e-35 -5.6616234e-34 -3.58359e-34 8.152531e-35 -5.6088497e-34 -2.3457988e-34 2.5777108e-34 6.68736e-35
7.771478e-35 4.1961502e-34 3.0157395e-34 -2.329079e-34 1.9361632e-35 5.5330762e-34 -5.32125e-34 2.936664e-34
-2.5421813e-34 -4.0536234e-34 -1.5564996e-34 -2.1318407e-34 4.4478833e-34 -1.3414117e-34 -1.6575297e-35 -5.5742346e-34
9.089019e-35 4.4494197e-34 -1.8328244e-34 2.6129217e-34 -2.1422347e-34 -4.2107604e-34 1.4464426e-34 3.3441804e-34
-3.1577426e-34 5.2474926e-34 5.1891023e-34 -3.151818e-34 -1.3797999e-34 1.3026626e-34 4.168615e-34 -3.9037984e-35
-6.098166e-35 3.3842322e-35 -2.3517571e-34 -1.2693172e-34 -2.4181602e-34 -5.1436987e-35 1.583227e-34 4.9109647e-34
-3.3102959e-34 -4.7399055e-34 -9.60354e-35 -3.3179788e-34 2.9997009e-34 3.2585727e-34 -8.963521e-35 2.6229315e-34
-4.1119674e-34 -4.8837805e-34 -4.2886984e-34 3.3780877e-34 -4.1774245e-34 -2.4237564e-34 -3.5040141e-34 1.8007314e-34
-5.633028e-34 3.962584e-34 -1.5649098e-34 5.7893074e-34 3.5083713e-34 3.7891298e-34 5.81412e-34 3.2184034e-34
4.4753444e-34 5.365905e-34 7.725304e-35 2.735121e-34 -3.9424354e-34 3.5336903e-34 4.6877356e-34 -9.849896e-35
1.9651533e-36 -5.657671e-34 -4.540514e-34 1.7050917e-34 -4.36654e-34 -2.3270334e-35 -1.122252e-34 7.7444507e-35
7.0544355e-35 3.1351054e-34 3.896268e-34 3.577651e-34 1.8308543e-35 3.4569957e-35 5.625026e-34 -4.529591e-34
00000000: 8896 f787 d930 2908 86dc fa07 1669 8f07
00000010: 5f35 0a08 ded6 8506 5c0b 4088 82db cc07
00000020: bc5e 2188 a84b 8707 9ef9 6007 2b7c 6b87
00000030: a4c9 ba07 3c90 dc07 9824 8b07 c88a 6107
00000040: 40dc f685 80bd a485 07ac 3688 1404 3688
00000050: 001a 2a08 7e44 a987 08dd 1f07 3816 c887
00000060: 287d 4387 80b0 4408 6ea9 8287 c5fe 1508
00000070: f073 3b87 a821 d386 b804 1008 611a f607
00000080: a227 1387 99fa 3a88 f9c3 c187 60aa d407
00000090: d097 2308 26cf 2808 efb7 4188 c8ce 0087
000000a0: c8a2 2b07 60b2 0888 3896 2208 df64 a707
000000b0: f3f4 a687 802c 5e07 f83f 8507 979b 1108
000000c0: 810f c807 c8e6 1007 108c eb07 84c5 1008
000000d0: 20ef ea07 ceee f287 a276 a587 f342 2688
000000e0: 3e38 9907 242c 2308 f01c 9c87 6112 0c88
000000f0: 4dd8 8907 f725 a587 c9e6 3b08 5c4c a907
00000100: 0129 2388 a0e4 df86 4487 5107 0077 7e07
00000110: 78e3 a506 10d8 c887 6063 9387 c685 2808
00000120: 638b 1008 f8a5 dd06 50a1 7586 f8d5 8e85
00000130: c09b 0308 705d 8d06 2852 a085 9ea6 f407
00000140: a28c b487 2ea1 8007 16ad bf87 201a 7406
00000150: 84ca ea07 0890 b086 e082 fb87 7e39 2687
00000160: 4285 b007 8e79 1188 69ef b207 a49f 0108
00000170: d813 2d88 82ca 4a07 e308 b507 193f 1e88
00000180: 1c2f d507 40ea 1808 0b01 4008 c044 bc87
00000190: 95be 3507 1345 3f08 af08 1788 983d 9d07
000001a0: 005f b307 6e24 c907 ae01 9787 c8f6 df06
000001b0: 28ad f207 9489 f507 3876 ab85 642a 9a33
000001c0: 7a44 3e88 bcf7 4707 3963 2888 a7f2 1888
000001d0: fc17 9c07 8824 2188 f337 3008 9231 cb86
000001e0: e0a5 1786 23fc 5707 58fe a186 288a d687
000001f0: bac3 0708 2818 f605 4c49 1e88 c925 0288
00000200: 9112 4f87 d413 2986 6896 1f08 5c85 f786
00000210: 0000 a405 f896 8686 2d75 2c88 70fb 3288
00000220: 1d3b 7d87 ba35 1f08 50d1 8a86 1c8a 9407
00000230: 26d9 0288 e024 b687 a021 b387 5e5f eb87
00000240: 7c3e 3188 6061 2a87 6487 2188 70f3 9e87
00000250: a2da 4c87 5f2f 1e08 d4c5 1208 314e c187
00000260: e36f f007 92b1 e007 3012 1288 f11e f207
00000270: e402 d387 6604 c907 a0e3 1a07 6fb8 7307
00000280: c064 4806 c423 3c88 a02b ee87 40bb d806
00000290: d162 3a88 b3e7 9b87 7a51 ab07 d0c7 b106
000002a0: f099 ce06 e670 0b08 266e c807 3acb 9a87
000002b0: 60e3 cd05 35de 3708 30d4 3088 c02c c307
000002c0: f9f4 a887 6ab4 0688 f0e4 4e87 64af 8d87
000002d0: 68ce 1308 e04d 3287 4042 b085 583c 3988
000002e0: a8a0 f106 7adb 1308 c89f 7387 8fa8 ad07
000002f0: 3c60 8e87 30ed 0b88 e443 4007 4842 de07
00000300: 35de d187 bb60 2e08 0070 2c08 6879 d187
00000310: 2868 3787 5027 2d07 a886 0a08 c08f 4f86
00000320: f81d a286 c8ef 3306 134d 9c87 a0b8 2887
00000330: ddb6 a087 33be 8886 6c72 5207 de31 2308
00000340: c401 dc87 a882 1d88 4e4e ff86 7c84 dc87
00000350: 445d c707 be91 d807 904a ee86 de52 ae07
00000360: c0a4 0888 9c4a 2288 3684 0e88 2f83 e007
00000370: 99d1 0a88 1416 a187 b6e1 e887 b75b 6f07
00000380: 8130 3b88 f0ad 0308 1f03 5087 fb61 4008
00000390: d82b e907 b4d4 fb07 1035 4108 4ce6 d507
000003a0: 05b8 1408 1250 3208 b25f cd06 acc7 b507
000003b0: 8802 0388 a0da ea07 d8c6 1b08 76ed 0287
000003c0: 402d 2704 2402 3c88 6ce2 1688 44a5 6207
000003d0: 6a1a 1188 e073 f785 422c 1587 00e2 cd06
000003e0: 008a bb06 0e5d d007 c879 0108 94c6 ed07
000003f0: 98b0 c205 30ce 3706 6eec 3a08 8085 1688

sequential/dense/BiasAdd/ReadVariableOp:0 f4 [32]
0.0367501 0.015003301 0.00019895355 0.016423764 0.002052697 0.051022008 0.040470257 0.04316821
0.06867885 0.066791594 -0.022476817 0.018314192 0.018105388 0.01998889 -0.004460267 0.020616952
0.025623765 0.053317152 0.00831784 -0.016623816 0.0015698348 0.059418894 0.08346665 0.015276588
0.07292245 0.019862259 0.028636627 -0.005163763 0.005796535 0.024173247 0.04038879 0.010341813
00000000: 4687 163d 68d0 753c 309e 5039 218b 863c
00000010: 8a86 063b 74fc 503d 24c4 253d 26d1 303d
00000020: 7fa7 8c3d 08ca 883d 4d21 b8bc a507 963c
00000030: c051 943c bebf a33c 6e27 92bb e2e4 a83c
00000040: eee8 d13c 1663 5a3d 8d47 083c ab2e 88bc
00000050: eac2 cd3a 3a61 733d 90f0 aa3d a74a 7a3c
00000060: 5e58 953d 2db6 a23c 5c97 ea3c c934 a9bb
00000070: dcf0 bd3b f906 c63c b76e 253d b570 293c
