nn_weights/mnist_nn-32.onnx (onnx, 102934 bytes, 4 tensors)

sequential/dense_1/MatMul/ReadVariableOp:0 f4 [32, 10]
000000 ad d0 b6 bf 61 7d 95 bf f4 ed 73 3e 4b db 6f 3e
       -1.4282433 -1.1678888 0.2382124 0.23423497
000010 5d 6c 64 3f 59 82 2a 3f de d3 20 bf 88 c3 ab bf
       0.8922785 0.66605145 -0.62823284 -1.3419046
000020 f7 d5 04 3e 44 a0 07 bf ad b8 17 3e 96 4a d4 3e
       0.12972246 -0.5297892 0.14816542 0.41463155
000030 ec fd 0f c0 8d 23 83 bf 76 ec 3f be b8 66 62 3f
       -2.2498732 -1.0245224 -0.18742546 0.88437986
000040 67 a9 74 3f 15 e9 ae bf 1d c7 e1 3e 26 8b 06 3f
       0.9557099 -1.3664881 0.44097224 0.52556074
000050 6a 5b a6 3e dc cd a0 bf 67 1b f8 3e 4c 6b f2 be
       0.32491618 -1.2562823 0.48458406 -0.47347486
000060 90 1b 9e be 0b d4 30 be 04 9f 3e 3f 7f 0b 1e bf
       -0.30880404 -0.17268388 0.7446139 -0.6173629
000070 49 30 25 3f b5 11 39 be ed 6e 76 bf 08 66 28 3f
       0.645268 -0.18073161 -0.9626301 0.6578069
000080 ba ea 41 3e 3e e8 50 bd 54 df f8 be 86 d7 4d 3f
       0.18937197 -0.051002733 -0.48607886 0.8040699
000090 a3 4a 01 3f 9d 9c cc bf b6 7c c4 3d 6b b0 54 bf
       0.5050451 -1.5985295 0.09594099 -0.8308169
0000a0 27 44 3c 3e 60 75 dc be 75 6d 69 3f 7a 7a 6e 3f
       0.18385373 -0.430583 0.91182643 0.93155634
0000b0 14 5c 3f c0 e0 d9 e5 3e 85 d6 e5 bf bb ff bf 3e
       -2.989995 0.44892788 -1.7956091 0.37499794
0000c0 ba 4f d6 be 51 dc 60 bf d0 c1 8f 3f fd 6b de 3e
       -0.41857702 -0.87836176 1.1231022 0.43441764
0000d0 b0 97 5e bf 98 ca 89 bf e2 7b 9b bf 1b f5 59 3f
       -0.86950207 -1.0764952 -1.2147181 0.85139626
0000e0 11 c7 6f 3e de be 09 3f fd 32 e1 bf a0 ec 41 be
       0.23415782 0.53806865 -1.7593685 -0.18937922
0000f0 ca 59 35 3f ad 48 b0 bf ca 4a 0e bf 6b 2f 28 3f
       0.7084013 -1.3772179 -0.5558287 0.65697354
000100 9a a3 27 bf 3d 98 93 be 77 ca f4 3e 23 b8 70 3f
       -0.6548401 -0.28827086 0.47810718 0.9403097
000110 32 9e 87 bf a8 cc c5 3d 76 f6 c8 bf fd 24 21 3f
       -1.0595152 0.09658176 -1.5700214 0.62947065
000120 a4 8f 91 3f 21 b3 bb be 58 a9 86 bf 66 5f 88 3d
       1.1371961 -0.36660102 -1.052043 0.06658821
000130 b2 f2 11 3f b0 97 8e 3f d5 2d a1 be fd 95 e3 bf
       0.5701095 1.1140041 -0.3148028 -1.7780148
000140 8f 3b b6 bf c4 cd be 3e c3 08 c5 bf f5 7b 5c 3e
       -1.4236926 0.37266362 -1.5393299 0.21531661
000150 ad 18 4a 3f c6 a2 ad be 42 b5 b7 bf 7e d1 80 3e
       0.789439 -0.3391325 -1.435219 0.2515983
000160 7f e2 93 3e 21 9a 0e 3f 14 2a 0d 3f 3a aa 30 3f
       0.2888374 0.5570393 0.5514233 0.69009745
000170 4a 08 b7 3e fc 1a 53 3e a5 cd d8 bf 35 52 22 bf
       0.35748512 0.20615762 -1.6937758 -0.6340669
000180 a8 57 88 bf 01 52 16 bf d7 9c 32 3f dd af fa 3e
       -1.065175 -0.5871888 0.6977057 0.48962298
000190 b0 d3 cd 3e fc 08 f7 bf 17 24 b9 be 49 e8 9e 3d
       0.40200567 -1.9299617 -0.36160347 0.07759149
0001a0 14 48 c7 3e 29 ff 37 3e 46 b6 5d bf 8f 17 05 be
       0.3892218 0.1796843 -0.8660625 -0.12997268
0001b0 1c 27 21 3f c8 fc b5 3e 3a ef 49 bf 92 a3 b3 be
       0.629503 0.3554442 -0.78880656 -0.35085732
0001c0 b1 da 9e 3e 77 ed 20 3e 0a be db be 69 13 59 3c
       0.31026223 0.15715586 -0.42918426 0.013249257
0001d0 4d 1f 06 3f 68 4c 63 bf 7c d8 ec 3e 8b cb 27 bd
       0.5239151 -0.8878846 0.46258914 -0.040965598
0001e0 b3 dc ee be fb 66 29 3f 1c 49 f0 bf e5 be 9c bf
       -0.46652755 0.6617276 -1.8772311 -1.2245756
0001f0 95 85 08 3f d9 e3 82 3f bf 46 68 bf f7 8f 46 3f
       0.5332883 1.0225784 -0.9073295 0.7756342
000200 cd e1 f0 be 29 e2 58 3f fa ea 8d 3f 67 7c 04 bf
       -0.47047272 0.84720093 1.1087334 -0.5175232
000210 d6 e4 1c bf 25 66 98 bf 44 67 38 3e 96 3b 10 bd
       -0.61286676 -1.1906172 0.18008143 -0.035213076
000220 ed c3 60 3f 28 02 3e bf 84 5d 3c bf 85 f4 87 3e
       0.8779896 -0.7422204 -0.73580194 0.2655374
000230 12 4f 0c bf 13 98 ce be 6e ae 61 bf d8 20 ae bf
       -0.5480815 -0.40350398 -0.88156784 -1.3603773
000240 35 ae da 3e 32 f8 97 be 6d ec eb 3c a6 88 1f 3f
       0.42711034 -0.29681545 0.02879926 0.62317884
000250 87 a4 81 be 33 72 6f 3f db 8b 92 bf 83 d4 e0 bf
       -0.25320837 0.9353363 -1.144893 -1.7564853
000260 d2 f2 5b bd 3d b3 31 3f 5b 48 85 bf ec 24 83 3e
       -0.05369837 0.6941412 -1.0412706 0.25614107
000270 34 f5 3c c0 35 7c 2b 3f 89 cd 1d bf e8 7e 77 3f
       -2.952466 0.669864 -0.61641747 0.9667802
000280 c2 80 14 3e 43 16 9c bf 70 ec 5f 3f 13 02 8d bf
       0.14502242 -1.2194294 0.8747015 -1.1016258
000290 a6 55 8c 3f ef 0c 92 3e 1c 9e 9e be a0 40 e1 3e
       1.0963638 0.28525493 -0.30980003 0.43994617
0002a0 0d 79 12 c0 c3 2d f5 be a9 c3 ef 3e 87 8c 9a bf
       -2.2886384 -0.47886476 0.46828964 -1.2074136
0002b0 6e a3 c7 be 79 73 b9 be ac c2 56 3e 6d 14 59 3e
       -0.38991874 -0.3622091 0.20972699 0.21199198
0002c0 e7 f4 ac 3e b8 00 9d be cb fe 08 3f ef 13 0c 3f
       0.33780596 -0.3066461 0.53513783 0.54717916
0002d0 40 ab c6 3e c4 81 b7 be 5e 71 ba 3f ed b5 c4 be
       0.38802528 -0.3584119 1.4565847 -0.38420048
0002e0 36 cc 97 be d2 df a5 3e 1a 14 58 bf 0a 02 1e 3f
       -0.29647988 0.32397324 -0.8440567 0.6172186
0002f0 31 0a bf 3e bf 6a c8 bf 0c 3e 3d bf 5b 07 45 3c
       0.37312463 -1.5657576 -0.739228 0.012025679
000300 eb b7 ee be 2a 6e b3 3e e5 da 3f 3f 9e 00 63 3e
       -0.46624693 0.35044986 0.7494338 0.22168204
000310 0d 9a 00 3f 0d 76 d1 be 77 29 3a 3f 37 5b d6 bd
       0.5023506 -0.40910378 0.7271952 -0.104666166
000320 a5 f3 9a 3d 7f e8 a5 bf b8 ed c1 3e 08 a3 25 be
       0.07566003 -1.2961577 0.37876678 -0.16175473
000330 ae 1d 0e 3f b5 3a 80 bf a0 9d 2d 3f de e0 6f bf
       0.5551404 -1.0017916 0.6781864 -0.93702495
000340 3c 33 74 be ea 54 08 3f 3d e7 3d 3f 00 8e cc bb
       -0.2384767 0.5325457 0.74180967 -0.0062425137
000350 ed ff 24 3f 96 30 d2 3e 7b 9e aa bf 78 28 1a bf
       0.6445301 0.41052693 -1.3329614 -0.60218
000360 4f 33 ab be 57 4f 59 bf 36 0d 02 3f 8a ac a7 bf
       -0.33437583 -0.8488669 0.5080141 -1.309953
000370 ef 01 24 3f 04 01 aa 3e 48 92 66 3f 45 6d 27 3f
       0.6406545 0.332039 0.9006696 0.6540111
000380 06 5b 5d bf 3b ef af bf c3 39 bc bf 29 04 89 3f
       -0.86467016 -1.3744882 -1.4705127 1.0704395
000390 bb d8 b1 bf 18 28 c2 be 1d 8e 1b be 8b 82 78 bd
       -1.3894266 -0.37921214 -0.1519093 -0.06067137
0003a0 cf e7 b4 be a5 16 11 3c 5c 97 9b be b0 c6 d1 3e
       -0.35333106 0.0088554965 -0.30388916 0.409719
0003b0 80 d3 b0 bf 95 4d 22 3f 51 f7 38 3f 68 85 94 be
       -1.3814545 0.6339963 0.72252375 -0.2900803
0003c0 d4 04 ac bf 33 03 84 3f 96 a7 05 3f 14 bc a6 bf
       -1.3438973 1.0313476 0.5220884 -1.3026147
0003d0 23 77 2b bf 92 d8 e4 bf 11 c0 3b 3f ce 05 7d 3f
       -0.66978663 -1.7878592 0.73339945 0.9883698
0003e0 4a d6 00 3f b5 c9 98 bf b1 e7 8d bf 7d ba 93 3f
       0.5032698 -1.1936556 -1.1086332 1.1541287
0003f0 7a 6b 0e be 2f 50 b1 3e dd 38 8b 3f c1 c1 36 c0
       -0.13908187 0.34631488 1.0876728 -2.8555758

sequential/dense_1/BiasAdd/ReadVariableOp:0 f4 [10]
000000 13 d3 cf be 11 6f 88 3e a3 ad 96 bc c1 07 8f be
       -0.40590724 0.26647237 -0.018393343 -0.27935603
000010 ad 70 45 3e 97 b7 d1 3e c8 51 12 3e 29 9f 4e 3e
       0.19281264 0.4096038 0.1428901 0.20177902
000020 40 a8 d5 be ef 45 ff bc
       -0.41729927 -0.031161277

sequential/dense/MatMul/ReadVariableOp:0 f4 [784, 32]
000000 57 cb 3e 08 58 d9 99 87 92 d0 0b 88 ec 8d ad 87
       5.741507e-34 -2.3148625e-34 -4.2073964e-34 -2.611356e-34
000010 a0 e5 d4 04 e9 3f 0b 08 1c 28 0a 88 82 ce f6 07
       5.0051838e-36 4.1903917e-34 -4.1575013e-34 3.713534e-34
000020 35 b7 2a 88 c4 ee a5 86 8a b7 5c 07 00 65 e3 04
       -5.1372873e-34 -6.2416936e-35 1.6604898e-34 5.3460197e-36
000030 13 b7 fb 87 b8 55 9d 85 4b 5f 0f 08 d4 96 08 08
       -3.7873884e-34 -1.4795697e-35 4.3144514e-34 4.110331e-34
000040 a7 62 e4 07 f0 0b bb 06 a0 7b 50 86 fc 7d d7 87
       3.436361e-34 7.035912e-35 -3.9211277e-35 -3.2423651e-34
000050 de 50 29 08 f4 3e a5 06 43 30 26 88 80 63 de 87
       5.0951647e-34 6.2158603e-35 -5.001054e-34 -3.3461328e-34
000060 3e 76 d1 b8 04 87 35 88 81 be 2d 88 dc 08 af 87
       -9.987921e-05 -5.4626416e-34 -5.228423e-34 -2.633628e-34
000070 d1 bc a9 07 60 b2 2a 08 6c f7 e3 06 4a d3 f2 07
       2.553927e-34 5.1367193e-34 8.5751463e-35 3.6536298e-34
000080 2f 91 08 07 66 92 77 87 d0 41 39 88 00 39 e4 04
       1.0274168e-34 -1.8625237e-34 -5.5748775e-34 5.365489e-36
000090 c3 5f fe 87 11 0b 0e 88 fa ca 11 08 57 f5 02 08
       -3.8273956e-34 -4.274458e-34 4.387295e-34 3.9408848e-34
0000a0 80 f8 30 88 a9 7a 01 87 a8 f1 03 87 fa 3f f2 07
       -5.3255184e-34 -9.740928e-35 -9.926361e-35 3.6449715e-34
0000b0 10 ef 3c 87 52 42 03 08 92 73 1d 07 83 8c 7a 87
       -1.4213802e-34 3.9499338e-34 1.184533e-34 -1.8849202e-34
0000c0 b0 66 50 07 1d 4f d5 07 b6 8e 27 88 72 d9 3f 08
       1.5678358e-34 3.2095177e-34 -5.042249e-34 5.7732578e-34
0000d0 12 b5 01 88 ad 41 3a 88 9b 03 dd 87 29 31 35 87
       -3.9032373e-34 -5.604954e-34 -3.3254503e-34 -1.3631373e-34
0000e0 59 80 40 87 10 37 73 07 22 ae 10 88 50 79 09 08
       -1.4482193e-34 1.829747e-34 -4.3538116e-34 4.136954e-34
0000f0 66 67 ae 87 36 d1 87 07 b0 c8 24 08 ae d7 27 08
       -2.6241382e-34 2.0435506e-34 4.958786e-34 5.0508265e-34
000100 69 ca 10 08 c0 9c be 06 9e 33 f9 07 26 82 ca 87
       4.3571356e-34 7.170038e-35 3.7495694e-34 -3.0470076e-34
000110 40 95 08 05 d2 0a c0 87 f1 39 02 88 9c 10 94 06
       6.422102e-36 -2.8895309e-34 -3.918856e-34 5.569582e-35
000120 7b dc 05 87 72 3b de 87 c0 e7 04 07 03 cb 17 87
       -1.0070601e-34 -3.3437786e-34 9.998681e-35 -1.1419637e-34
000130 c6 07 0a 08 f7 80 29 88 45 ec be 87 f4 11 45 08
       4.1537e-34 -5.1008185e-34 -2.872689e-34 5.9303635e-34
000140 1b 7a 2a 88 60 73 4b 86 88 6e e2 07 73 48 08 08
       -5.130105e-34 -3.826482e-35 3.4069665e-34 4.1011175e-34
000150 ad 74 ff 07 9c fc cf 07 4e 7c 4f 07 00 f3 89 07
       3.8436711e-34 3.1294369e-34 1.5609479e-34 2.0756291e-34
000160 12 6a 3e 88 e6 0a 16 88 e2 dd d0 07 21 5f 8d 87
       -5.730073e-34 -4.5151794e-34 3.1426773e-34 -2.1271234e-34
000170 60 b8 03 86 0e f3 fc 07 ce 20 dc 87 e5 1d 2e 88
       -2.477382e-35 3.80596e-34 -3.3121202e-34 -5.239636e-34
000180 88 98 1d 08 98 e7 19 06 8b 41 2a 08 04 aa 16 08
       4.742477e-34 2.894625e-35 5.123456e-34 4.5338835e-34
000190 52 c8 30 87 ea b9 4d 07 bd 30 c7 87 71 c2 3c 88
       -1.3299637e-34 1.5477121e-34 -2.9970838e-34 -5.6802757e-34
0001a0 1e 56 3a 88 07 6a 8b 87 12 0e 91 86 8a 33 a9 07
       -5.607357e-34 -2.0976713e-34 -5.456361e-35 2.5458586e-34
0001b0 4e 83 dd 07 48 80 ca 86 ba 13 8f 87 91 61 a4 07
       3.3329558e-34 -7.617245e-35 -2.1527843e-34 2.4733322e-34
0001c0 98 c5 b5 07 42 63 dc 07 c0 9c 2a 88 78 bb 03 88
       2.7349988e-34 3.316026e-34 -5.1341773e-34 -3.9641747e-34
0001d0 10 78 90 86 11 14 07 87 ec f0 31 08 c0 08 70 07
       -5.4343196e-35 -1.0162168e-34 5.3547202e-34 1.8058165e-34
0001e0 ec 4a 7b 07 ea b4 3b 88 60 1f 0a 08 64 0f a7 87
       1.8905159e-34 -5.648593e-34 4.1564746e-34 -2.5136413e-34
0001f0 f8 51 36 87 9c 12 c2 06 40 58 10 07 a8 fd 48 87
       -1.3716247e-34 7.3002033e-35 1.085929e-34 -1.512087e-34
000200 f8 f3 04 07 54 46 c6 87 04 5b 06 08 10 64 20 88
       1.0002272e-34 -2.9833064e-34 4.0431147e-34 -4.826587e-34
000210 b9 41 30 08 f8 7f 98 07 b2 6a 97 87 65 e8 37 88
       5.304033e-34 2.2945631e-34 -2.2782665e-34 -5.534274e-34
000220 58 a1 77 07 66 9c 9b 07 25 82 20 07 60 1e 30 05
       1.8629629e-34 2.341373e-34 1.2075308e-34 8.281059e-36
000230 08 10 0e 88 33 5d 35 08 12 47 09 08 86 1e a5 07
       -4.2750415e-34 5.457726e-34 4.131048e-34 2.484438e-34
000240 f6 67 fe 87 c3 89 68 34 7e ee a0 07 a0 6c d7 86
       -3.8278775e-34 2.1656801e-07 2.4214297e-34 -8.103362e-35
000250 2e 26 26 08 aa 79 38 88 98 28 3e 88 2d 5d c8 87
       4.999869e-34 -5.55135e-34 -5.7223763e-34 -3.014742e-34
000260 c2 55 43 07 75 28 9e 87 e0 6e 61 87 86 50 07 08
       1.4695371e-34 -2.3796976e-34 -1.6959702e-34 4.071974e-34
000270 3b 17 ae 87 3b 3c e2 07 d2 e8 f8 87 76 9c af 87
       -2.6194264e-34 3.40401e-34 -3.7451732e-34 -2.6423033e-34
000280 9c e8 04 88 f7 e1 13 08 6f db 13 08 1f 97 1b 87
       -3.9995736e-34 4.4501824e-34 4.4494146e-34 -1.1705314e-34
000290 0c 8f 03 88 9d 6a aa 07 18 14 83 07 56 9c 01 88
       -3.958953e-34 2.5641419e-34 1.97225e-34 -3.9003297e-34
0002a0 30 d6 de 07 2a 2b ee 07 ae 19 90 07 04 9d 1a 07
       3.3528736e-34 3.583563e-34 2.1681805e-34 1.1631815e-34
0002b0 95 31 0d 87 80 53 0e 85 40 e2 53 87 16 5e 89 07
       -1.0622232e-34 -6.6921444e-36 -1.5940365e-34 2.0668768e-34
0002c0 38 5d 85 06 12 53 00 08 c0 5e 08 87 6a 7c a0 87
       5.016601e-35 3.8616248e-34 -1.0259347e-34 -2.4147248e-34
0002d0 67 3a e2 07 d1 be a8 87 20 e1 02 88 4c 4f e2 85
       3.4039026e-34 -2.5389982e-34 -3.9385085e-34 -2.1282067e-35
0002e0 00 e8 c4 86 ea d2 06 08 78 ce ca 87 80 37 46 06
       -7.40679e-35 4.0572086e-34 -3.0514933e-34 3.7280436e-35
0002f0 80 d4 20 06 f4 07 8f 07 d8 02 77 86 26 01 b0 06
       3.0248776e-35 2.1520923e-34 -4.6457626e-35 6.620553e-35
000300 8d 25 f2 87 ac 3c e9 85 20 10 19 07 48 3a a2 07
       -3.6434183e-34 -2.1933502e-35 1.1515179e-34 2.4409305e-34
000310 50 12 1f 06 14 3b e7 87 65 a6 2f 08 80 c5 35 88
       2.991803e-35 -3.479174e-34 5.2857743e-34 -5.4699866e-34
000320 13 a2 20 08 4c 7e 10 87 bf 58 45 07 54 1b 1f 88
       4.8338766e-34 -1.0870471e-34 1.4846713e-34 -4.7879446e-34
000330 5c 37 b9 07 9a 0f c7 07 58 22 e0 07 c0 5a fc 87
       2.7868244e-34 2.9951362e-34 3.372396e-34 -3.7970084e-34
000340 f8 b3 94 86 10 9e e8 07 fa 25 de 07 e0 c0 20 86
       -5.593585e-35 3.500038e-34 3.3425168e-34 -3.0234358e-35
000350 02 e9 9f 87 78 83 de 07 e0 cc 8a 87 e4 6b 69 86
       -2.406061e-34 3.3480118e-34 -2.0884347e-34 -4.3901695e-35
000360 e8 51 7c 87 1a b6 a2 87 dc 52 57 87 00 ba bf 05
       -1.8982443e-34 -2.448208e-34 -1.6199152e-34 1.802988e-35
000370 47 86 3e 88 97 10 29 08 e0 50 2e 08 26 17 9d 07
       -5.7333887e-34 5.087609e-34 5.245629e-34 2.363634e-34
000380 73 05 2a 88 14 5c f5 06 e0 b9 d9 07 40 dd 49 87
       -5.116392e-34 9.2294054e-35 3.2759779e-34 -1.5186579e-34
000390 00 a5 2c 88 c0 a1 d8 87 57 2f 05 88 18 b9 3c 86
       -5.1953324e-34 -3.2595136e-34 -4.007888e-34 -3.5494855e-35
0003a0 c0 8c 28 88 27 74 18 08 48 43 26 07 4f ab 0f 08
       -5.072111e-34 4.5877373e-34 1.2508224e-34 4.323387e-34
0003b0 83 c3 e4 87 e0 ed c0 07 5f 0e 11 08 13 e4 e2 87
       -3.4420539e-34 2.902876e-34 4.3651243e-34 -3.413875e-34
0003c0 a0 08 98 86 dd 22 80 07 00 ea a8 07 1a ea 85 07
       -5.718872e-35 1.927979e-34 2.5415363e-34 2.0149208e-34
0003d0 8e 63 91 87 74 d8 2b 07 6e 1e 2f 87 50 bb 9a 06
       -2.1875688e-34 1.292822e-34 -1.3174479e-34 5.820359e-35
0003e0 58 5f 48 07 1d 03 2a 88 10 15 1e 07 22 1f c6 07
       1.5074347e-34 -5.1161174e-34 1.1892789e-34 2.9810027e-34
0003f0 39 d1 d8 07 00 20 0f 88 6a 65 d9 07 15 2a 6d 07
       3.2623038e-34 -4.3070113e-34 3.2710137e-34 1.7842265e-34

sequential/dense/BiasAdd/ReadVariableOp:0 f4 [32]
000000 44 01 5d 3d 6d 6c 1f 3d 06 9c 35 ba 17 25 a4 3d
       0.053956285 0.038921762 -0.00069278514 0.08014887
000010 7a 27 01 3c 22 12 83 3d ea 47 c0 39 ce 02 81 3d
       0.007882947 0.06399943 0.00036674674 0.06299363
000020 35 1c 9e 3c ea a1 ae bc 61 ee 76 bc 0b cb 5e 3c
       0.01930056 -0.021317441 -0.015071482 0.013598214
000030 79 44 98 3d 54 c9 78 3c 2d e0 9e 3c c1 96 62 3c
       0.07434935 0.015184719 0.019394005 0.013829888
000040 86 da f6 3d 7d 26 61 bb 6d 71 69 3c ff cd 2e 3c
       0.12053399 -0.0034355216 0.014248234 0.0106692305
000050 27 0d 56 bb e0 ab 87 bc eb 11 80 bb 8c 14 af 3c
       -0.0032661648 -0.016561449 -0.003908386 0.021372102
000060 f4 00 20 3d d7 c2 24 bc bf 77 b3 bb be 4c a2 3b
       0.03906341 -0.010056219 -0.0054769213 0.004952996
000070 df d3 98 3d 54 c7 40 3d 75 45 15 3d 3d 0b 1d bc
       0.07462286 0.047065094 0.036443193 -0.009585199
