nn_weights/mnist_description.onnx (onnx, 102934 bytes, 4 tensors)

sequential/dense_1/MatMul/ReadVariableOp:0 f4 [32, 10]
0	0x3f6bce67	0.9211182
1	0xbf8b212c	-1.0869498
2	0xbd441093	-0.04786737
3	0xbf554128	-0.83302546
4	0x3e040cf6	0.12895569
5	0x3f1b73e9	0.6072374
6	0x3f1d2983	0.61391467
7	0xbf481f29	-0.78172547
8	0x3ed0be5e	0.4077024
9	0xbf79c36c	-0.97563815
10	0x3dfaecd6	0.12252204
11	0x3f287d1a	0.6581589
12	0xbf46420c	-0.7744453
13	0x3e1aa030	0.15100169
14	0xc00a1d3a	-2.1580338
15	0x3fded4ab	1.7408651
16	0x3f009c92	0.5023891
17	0xbe5355f2	-0.20638254
18	0xbfabe7a1	-1.3430063
19	0x3eddc8fe	0.43317407
20	0x3ed44025	0.41455188
21	0xbf7e9886	-0.9945148
22	0xbe785ac7	-0.24253379
23	0xbf416f29	-0.7556024
24	0x3e959558	0.29215503
25	0x3f2798e0	0.65467644
26	0xbf2d75c2	-0.6775781
27	0xbf84b909	-1.0368968
28	0x3f85b511	1.0445882
29	0xbedb161e	-0.42790312
30	0xbe4140ae	-0.1887233
31	0x3df09c89	0.11748607
32	0x3f0f3fec	0.5595691
33	0x3e32a07a	0.1744403
34	0xbea10c49	-0.31454685
35	0x3d1f5708	0.03890136
36	0x3f415473	0.75519484
37	0xbfaad812	-1.334719
38	0x3ec78902	0.38971716
39	0xbedef3f4	-0.43545496
40	0xc003773b	-2.0541523
41	0x3f476a7d	0.77896863
42	0x3daf77a1	0.08567739
43	0x3f2af9db	0.667875
44	0xbe174ebc	-0.14776129
45	0x3e85d372	0.26137882
46	0xbfbbdd7b	-1.4676965
47	0xbf2f421d	-0.68460256
48	0x3e4a32af	0.19745897
49	0x3ea67b45	0.32515922
50	0x3da88b46	0.08229689
51	0xbd320af3	-0.043467473
52	0xbfaef6ea	-1.3669102
53	0xbfd69f60	-1.6767387
54	0x3f53d2ec	0.82743716
55	0x3edfcd9c	0.43711555
56	0x3f2d4737	0.6768679
57	0x3f082878	0.5318675
58	0xbcb7c107	-0.02243091
59	0x3ed73f8c	0.4204067
60	0xbf52eb36	-0.82390153
61	0xbf8882e2	-1.0664942
62	0xbf951a81	-1.1648713
63	0xbea3186e	-0.31854576
64	0x3ee28fe4	0.44250405
65	0x3c097427	0.008389509
66	0x3f28a9a0	0.6588383
67	0x3ef60482	0.48050314
68	0x3f2f4080	0.68457794
69	0x3e5aedae	0.2137973
70	0x3e105f5b	0.14098875
71	0xbf04bf66	-0.5185455
72	0xbe136d2f	-0.14397119
73	0x3f0777bd	0.5291708
74	0xbf6a3f22	-0.91502583
75	0x3cf4ac90	0.02986744
76	0xbe87b355	-0.26504007
77	0xbfb31f34	-1.3993897
78	0x3f3f9801	0.74841315
79	0xbe233e7a	-0.15941802
80	0x3ee615fc	0.44938648
81	0xbed36898	-0.41290736
82	0x3dc58ce1	0.09646011
83	0x3ee2d92a	0.44306308
84	0xc0152def	-2.3309286
85	0x3f053a89	0.5204244
86	0xbfdb9c6e	-1.7157114
87	0x3f76c1b1	0.963893
88	0xbee0d281	-0.43910602
89	0x3dcd3b4a	0.10021074
90	0xbfcf365f	-1.6188468
91	0x3e91bec0	0.28465843
92	0xc000998b	-2.0093715
93	0x3f7aaa3c	0.9791601
94	0x3f4649c6	0.7745632
95	0x3e5df3d9	0.21675052
96	0xbfad4a84	-1.3538365
97	0xbdeed610	-0.11661923
98	0xbee8ef7e	-0.45495218
99	0x3f338cca	0.701367
100	0x3f09c838	0.53821135
101	0xbf3e0ac1	-0.7423516
102	0x3f5c5cf9	0.86079365
103	0x3f34bd1c	0.7060106
104	0xbe51f517	-0.2050365
105	0x3f2a0599	0.6641479
106	0xbee8f224	-0.4549724
107	0x3deeef8c	0.11666784
108	0xbe41236b	-0.18861167
109	0xbfcb266d	-1.5871102
110	0xbf089207	-0.5334782
111	0xbf89f7f6	-1.0778797
112	0x3e48fc73	0.19627552
113	0xbdbab6e0	-0.09116912
114	0xbf4aeb73	-0.79265517
115	0xbf615682	-0.88022625
116	0xc0069a4d	-2.1031678
117	0x3f2e6548	0.6812329
118	0xbe52b014	-0.20574981
119	0x3f1295ea	0.5726
120	0xbf6ef8ee	-0.93348587
121	0x3f7534fd	0.9578398
122	0xbfe8eca9	-1.8197223
123	0xbfcbcedc	-1.5922503
124	0x3f0a0e2f	0.5392789
125	0x3ef9105e	0.486453
126	0x3f2c9bae	0.6742505
127	0xbfae24eb	-1.3605016
128	0x3e61bb3a	0.22044078
129	0x3edfcb94	0.43710005
130	0xbfce8237	-1.6133488
131	0x3ec66c74	0.38754618
132	0x3f1ee00d	0.62060624
133	0xbdd5f6be	-0.10447453
134	0xbf839612	-1.0280173
135	0xbecb4408	-0.3970034
136	0x3f1d58e9	0.6146379
137	0x3f46d77b	0.7767255
138	0xbca291a7	-0.019844843
139	0x3eaad679	0.33366755
140	0xbf89c21f	-1.0762366
141	0x3f242926	0.6412529
142	0x3f5d3396	0.8640684
143	0x3f094e53	0.5363514
144	0xbfb424f7	-1.4073781
145	0xbc1553d0	-0.009114221
146	0x3f1ecf2b	0.62034863
147	0xbce4d525	-0.027933666
148	0xbe1889e3	-0.1489635
149	0xc0190d90	-2.3914528
150	0xbfe64a9f	-1.7991523
151	0xbfb60fad	-1.4223534
152	0x3f6b080a	0.9180914
153	0x3e31eaaf	0.17374681
154	0x3edc0aab	0.4297689
155	0x3f12b9b3	0.57314605
156	0xbf21f9f8	-0.6327205
157	0xbe2e2ef7	-0.17010103
158	0xbfd3ebed	-1.6556374
159	0x3ec64be9	0.3872979
160	0x3e4a0ddb	0.19731848
161	0xbfc13a27	-1.5095872
162	0xbf4c3516	-0.797685
163	0x3e9e19c5	0.30879036
164	0x3e939c61	0.28830245
165	0x3d8db91f	0.06920075
166	0xbf39ebf9	-0.7262569
167	0x3e90b7a0	0.28265095
168	0x3e8bc1e5	0.27296367
169	0x3f1a0b34	0.60173345
170	0x3f0a49aa	0.5401865
171	0xbfb24c28	-1.3929491
172	0x3e97e387	0.29665777
173	0x3f8c37bd	1.095451
174	0xbfbce4e5	-1.4757353
175	0x3f2b97ca	0.67028487
176	0xbf789c23	-0.97113246
177	0xbf87dec7	-1.0614861
178	0xbf81b5b1	-1.0133573
179	0xbf00ce2a	-0.5031458
180	0x3e9913d2	0.29897934
181	0xbee7a5ad	-0.45243588
182	0x3f1b336b	0.6062533
183	0xbde23f65	-0.11047248
184	0x3f70762d	0.9393032
185	0xbeb12432	-0.34597927
186	0x3f5de1f6	0.86672914
187	0x3f746e08	0.95480394
188	0xbed03aff	-0.4067001
189	0xbfabb3f9	-1.3414298
190	0x3f0873d6	0.5330175
191	0xbfc4691a	-1.5344574
192	0x3d993a5c	0.07481834
193	0xbd4572d8	-0.048205227
194	0xbe52250f	-0.20521949
195	0xbf3241e8	-0.69631815
196	0xbf559427	-0.8342919
197	0x3f69f9f8	0.9139705
198	0x3c60e990	0.013727561
199	0x3f54af5d	0.83080083
200	0xbe62a129	-0.2213179
201	0x3f92f7a4	1.1481824
202	0xc0081c5b	-2.1267307
203	0xbfb79ff7	-1.4345692
204	0xbee69e1a	-0.45042497
205	0x3fb0c182	1.3809054
206	0xbe3ae00e	-0.18249533
207	0x3e8f2a50	0.2796197
208	0xbf4ab7a3	-0.7918646
209	0x3f51805e	0.818365
210	0x3daadc9c	0.08342859
211	0x3e5385bf	0.20656489
212	0x3ef60584	0.48051083
213	0x3ed61390	0.418118
214	0x3f2783ed	0.6543568
215	0xc008f657	-2.1400354
216	0xbf2ed652	-0.68295777
217	0xbe567047	-0.20941268
218	0xbaf2b7d0	-0.0018517915
219	0x3f46c03f	0.77637094
220	0x3f374ea4	0.7160437
221	0xbff2422f	-1.8926448
222	0x3f3393dd	0.70147496
223	0xbf1816f3	-0.5941002
224	0x3f31b7aa	0.69420874
225	0xbf064bc3	-0.52459353
226	0x3f338126	0.7011894
227	0xbf0b0ac0	-0.5431328
228	0xc0089359	-2.1339934
229	0xbf0f4389	-0.55962425
230	0x3f581838	0.84411955
231	0xbe33925c	-0.175363
232	0x3dd3c8f8	0.10341066
233	0x3e896d0a	0.26841003
234	0xbfac9212	-1.3482077
235	0xbe8553ba	-0.2604044
236	0x3e97c5d4	0.29643118
237	0xbf4b722d	-0.79471093
238	0x3ed6be0c	0.4194187
239	0x3e200579	0.15627088
240	0xbe91162f	-0.28337237
241	0xbda4f42e	-0.08054386
242	0x3f1c5ec5	0.61082107
243	0xbf92c049	-1.1464931
244	0x3f20c296	0.62796915
245	0xbf1ef085	-0.62085754
246	0x3f6e3fea	0.93066275
247	0xbfa1e1c2	-1.2647021
248	0x3eb80d28	0.35947537
249	0x3ee28b37	0.44246837
250	0xbfc74eb6	-1.5570896
251	0xbe992741	-0.2991276
252	0xbed6de55	-0.419665
253	0x3f135129	0.57545716
254	0x3f8e02e9	1.1094638
255	0x3f67a3e5	0.9048446

sequential/dense_1/BiasAdd/ReadVariableOp:0 f4 [10]
0	0xbe957cc7	-0.2919676
1	0x3ef8600b	0.48510775
2	0x3d927b5d	0.07152436
3	0xbe2523ec	-0.16126984
4	0x3dc498dc	0.09599468
5	0x3ebcd64e	0.36882252
6	0xbd9edff9	-0.07757563
7	0x3ed5c0d7	0.41748688
8	0xbf1fab29	-0.62370545
9	0xbe266bb3	-0.16252021

sequential/dense/MatMul/ReadVariableOp:0 f4 [784, 32]
0	0x07a6528d	2.5025423e-34
1	0x2e1a08a8	3.5023234e-11
2	0x05a84ba0	1.5826424e-35
3	0x07e3d07a	3.4277695e-34
4	0x0831a500	5.3457957e-34
5	0x87576d14	-1.6206857e-34
6	0x07892d96	2.0640262e-34
7	0x881a38c1	-4.6409403e-34
8	0x06a82c34	6.3259527e-35
9	0x881d9f18	-4.7432483e-34
10	0x87c2f06b	-2.933118e-34
11	0x08310d02	5.327929e-34
12	0x069c7998	5.8859344e-35
13	0x083f93ac	5.765056e-34
14	0x076c6dda	1.7786949e-34
15	0x0780b310	1.9364543e-34
16	0x87ecdec4	-3.5640263e-34
17	0x86a8690c	-6.334893e-35
18	0x082ca1b2	5.194944e-34
19	0x880087a5	-3.867805e-34
20	0x06b2efa8	6.73083e-35
21	0x05a865c0	1.5836021e-35
22	0x876088a6	-1.6892044e-34
23	0x070168e6	9.735708e-35
24	0x07fb7805	3.7836824e-34
25	0x86ad6180	-6.521863e-35
26	0x87516baa	-1.5755052e-34
27	0x07191da9	1.1519157e-34
28	0x082f3b75	5.273204e-34
29	0x87b84e45	-2.7731246e-34
30	0x87a3e406	-2.4659534e-34
31	0x87e1db40	-3.39831e-34
32	0x87a0db53	-2.4203031e-34
33	0x07ea4604	3.5249558e-34
34	0x0808a324	4.111778e-34
35	0x08152651	4.4883097e-34
36	0x8829fdd6	-5.115497e-34
37	0x87097100	-1.0339942e-34
38	0x883657c0	-5.4871782e-34
39	0x88125ec2	-4.4046664e-34
40	0x04bbc000	4.4139813e-36
41	0x073afec0	1.4067949e-34
42	0x87c8f2b1	-3.0235297e-34
43	0x88452950	-5.9331094e-34
44	0x8819c2ed	-4.6270897e-34
45	0xb684c837	-3.9572146e-06
46	0x0786dcf8	2.0291953e-34
47	0x88215f22	-4.8561003e-34
48	0x87110eb2	-1.0912906e-34
49	0x08136354	4.4352963e-34
50	0x06e39cfa	8.5618566e-35
51	0x87a5ab78	-2.492722e-34
52	0x8810bc28	-4.35546e-34
53	0x07bc6629	2.834714e-34
54	0x078ec4ab	2.1481376e-34
55	0x05578f00	1.01355164e-35
56	0x87660e80	-1.7307538e-34
57	0x0804b389	3.9933348e-34
58	0x882ae052	-5.14212e-34
59	0x07baf8c4	2.813238e-34
60	0x07663538	1.7318916e-34
61	0x081b7cd1	4.6790337e-34
62	0x880e4970	-4.2817896e-34
63	0x87668edc	-1.734526e-34
64	0x87e59276	-3.4542172e-34
65	0x877524f8	-1.8442616e-34
66	0x07857e30	2.0085782e-34
67	0x07fe5b38	3.8271286e-34
68	0x87e7bda5	-3.486848e-34
69	0xb5d26e60	-1.5678343e-06
70	0x083b5dbc	5.638345e-34
71	0x082bc0f7	5.168527e-34
72	0x0840244c	5.7820565e-34
73	0x06868faf	5.061632e-35
74	0x0807091e	4.06358e-34
75	0x068bfca0	5.265719e-35
76	0x080293ba	3.9294104e-34
77	0x876a76d8	-1.7639128e-34
78	0x881fb05c	-4.805463e-34
79	0x07ba14ef	2.7998473e-34
80	0xb34654fe	-4.6177767e-08
81	0x88041bf8	-3.975518e-34
82	0x86772dec	-4.6489275e-35
83	0x87f8647e	-3.7373957e-34
84	0x872e98ca	-1.3135206e-34
85	0x080ce651	4.2400453e-34
86	0x07a7d5fe	2.525314e-34
87	0x07d37536	3.1816642e-34
88	0x08421d10	5.8413914e-34
89	0x87fe6c72	-3.828141e-34
90	0x07bddbc0	2.8566717e-34
91	0x882c62a8	-5.1875337e-34
92	0x071bce79	1.1721581e-34
93	0x87883c4e	-2.049845e-34
94	0x8689985e	-5.1757556e-35
95	0x04c5d000	4.6505495e-36
96	0x879b1878	-2.333619e-34
97	0x8777f054	-1.8652841e-34
98	0x87817cb8	-1.9483066e-34
99	0x87a30dca	-2.4533619e-34
100	0x081da49e	4.7438976e-34
101	0x07fcaa40	3.801681e-34
102	0x87dd131c	-3.3263616e-34
103	0x071f6350	1.1991016e-34
104	0x8826b7ba	-5.0169777e-34
105	0x06d47a6f	7.9925437e-35
106	0x080fe95d	4.3306814e-34
107	0x082ff235	5.294686e-34
108	0x07fe660a	3.8277646e-34
109	0x07d82000	3.2518876e-34
110	0x06aea020	6.568681e-35
111	0x0817e741	4.5711747e-34
112	0x0740c429	1.4502121e-34
113	0x864c5f78	-3.8438275e-35
114	0x070a21ac	1.0391861e-34
115	0x87afa32a	-2.6426973e-34
116	0x07ccd21c	3.0818e-34
117	0x082abb80	5.137792e-34
118	0x08045ea3	3.983355e-34
119	0x07c4cee1	2.9612395e-34
120	0x87801b86	-1.9275476e-34
121	0x081ce258	4.721061e-34
122	0x871803c4	-1.1436316e-34
123	0x8802ae98	-3.9325686e-34
124	0x07bf26e5	2.8761346e-34
125	0x867f0ff0	-4.7971879e-35
126	0x072011b0	1.204226e-34
127	0x067ca500	4.7517155e-35
128	0x875b90cf	-1.6518284e-34
129	0x871c63ea	-1.1765498e-34
130	0x8790caf0	-2.1785988e-34
131	0x88144b80	-4.462588e-34
132	0x077c5730	1.8983995e-34
133	0x87e49f80	-3.4399373e-34
134	0x867390f0	-4.5809704e-35
135	0x07b97692	2.7905396e-34
136	0x87c6bd7c	-2.9903098e-34
137	0x87a708b8	-2.5132492e-34
138	0x06b64e30	6.857568e-35
139	0x873da101	-1.4266094e-34
140	0x081916c0	4.6068505e-34
141	0x8743afb0	-1.4721799e-34
142	0x87757250	-1.8465345e-34
143	0x8769dc78	-1.7593762e-34
144	0x078aab2e	2.0864543e-34
145	0x07255714	1.243881e-34
146	0x0803a932	3.9620267e-34
147	0x881023a6	-4.337533e-34
148	0x881e2610	-4.759114e-34
149	0x082e2989	5.2410045e-34
150	0x8619eae4	-2.8948672e-35
151	0x07e11de4	3.3871805e-34
152	0x88429447	-5.855405e-34
153	0x083c67e0	5.6696297e-34
154	0x0813f04a	4.451866e-34
155	0x88083d59	-4.0998125e-34
156	0x078cd0f4	2.118767e-34
157	0x88007242	-3.865291e-34
158	0x87a98780	-2.5507934e-34
159	0x87499d62	-1.516781e-34
160	0x0803b6d0	3.9636274e-34
161	0x077ec518	1.9166757e-34
162	0x88045642	-3.98237e-34
163	0x07d968e3	3.2712178e-34
164	0x8841dce0	-5.833846e-34
165	0x86d14aee	-7.872716e-35
166	0x87743018	-1.8370653e-34
167	0x87c13582	-2.9070862e-34
168	0x87575059	-1.6198414e-34
169	0x85dc0110	-2.0689091e-35
170	0x07cfd8fd	3.1273433e-34
171	0x865584a0	-4.0158285e-35
172	0x07c40120	2.9491463e-34
173	0x8801cfbf	-3.906373e-34
174	0x87fac5ec	-3.7732147e-34
175	0x879c6748	-2.3532974e-34
176	0x03e59d00	1.3495456e-36
177	0x88227320	-4.888543e-34
178	0x880144a5	-3.8900217e-34
179	0x87997832	-2.3091526e-34
180	0x0824171e	4.937913e-34
181	0x881eb84c	-4.7763035e-34
182	0x881ab180	-4.655134e-34
183	0x074cbe96	1.5403262e-34
184	0x07e9f462	3.5201579e-34
185	0x8798de61	-2.300112e-34
186	0x85a463f8	-1.5459209e-35
187	0x872d8c60	-1.3056326e-34
188	0x07c7f8ad	3.008835e-34
189	0x080a22e0	4.156886e-34
190	0x8832ccc0	-5.380561e-34
191	0x0757cb6c	1.6234583e-34
192	0x87ebe5e4	-3.5493988e-34
193	0x068116dd	4.8558e-35
194	0x87b0fb70	-2.6629318e-34
195	0x87a73cbe	-2.5163068e-34
196	0x871e4c00	-1.1908933e-34
197	0x07b5dbce	2.7363043e-34
198	0x87011ccc	-9.713344e-35
199	0x082bae88	5.16636e-34
200	0x08213268	4.8508427e-34
201	0x07f46e68	3.677793e-34
202	0x87fd9ebb	-3.8160502e-34
203	0x07cf30c4	3.117456e-34
204	0x87aeedb8	-2.6320329e-34
205	0x08018630	3.897726e-34
206	0x082e0900	5.23718e-34
207	0x07ef3271	3.599037e-34
208	0x88322cd4	-5.361762e-34
209	0x05eddbf0	2.2368165e-35
210	0xaf8651e6	-2.443265e-10
211	0x080de3e7	4.269854e-34
212	0x0821a3c0	4.8641662e-34
213	0x880ac8c5	-4.176387e-34
214	0x07097cf6	1.0343457e-34
215	0x0822faf4	4.9045096e-34
216	0x082b72f0	5.159355e-34
217	0x080af019	4.18101e-34
218	0x87274ac0	-1.2585651e-34
219	0x875f6a96	-1.6807978e-34
220	0x07323e11	1.3409471e-34
221	0x878fadde	-2.1618439e-34
222	0x883a8b31	-5.613596e-34
223	0x880f5563	-4.313287e-34
224	0x0652c3d0	3.964047e-35
225	0x884299b2	-5.856042e-34
226	0x08198e6d	4.6209183e-34
227	0x07102922	1.0845444e-34
228	0x86b0d2bc	-6.651349e-35
229	0x883261ce	-5.3679895e-34
230	0x07fd00d9	3.8067707e-34
231	0x29a8231a	7.466788e-14
232	0x878cf910	-2.1211245e-34
233	0x881bff3b	-4.694364e-34
234	0x881d6248	-4.7361e-34
235	0x0809c794	4.146154e-34
236	0x879b0c6c	-2.3329109e-34
237	0x86abc08c	-6.4605973e-35
238	0x872c9e9c	-1.2986453e-34
239	0x06645a00	4.2948155e-35
240	0x866b9698	-4.4309226e-35
241	0x87db43d7	-3.299133e-34
242	0x070f8404	1.079692e-34
243	0x07e15c10	3.3908347e-34
244	0x88288cba	-5.0721084e-34
245	0x08009be8	3.8701866e-34
246	0x87e45b6c	-3.435936e-34
247	0x876e4d28	-1.7927804e-34
248	0x8742bcbe	-1.4650404e-34
249	0x068c8ffe	5.2873724e-35
250	0x081aeba9	4.6619706e-34
251	0x06dae43e	8.233786e-35
252	0x08309637	5.313965e-34
253	0x07e0d732	3.3830254e-34
254	0x87f7e048	-3.729625e-34
255	0x082d1b00	5.209203e-34

sequential/dense/BiasAdd/ReadVariableOp:0 f4 [32]
0	0x3c9addaa	0.018904526
1	0x3ceb8a96	0.028752606
2	0xbb84e896	-0.0040560467
3	0x3c13e67e	0.009027122
4	0x3cc1beba	0.023650516
5	0x3d149c7c	0.036282048
6	0x3c456902	0.012048962
7	0xbd355697	-0.04427203
8	0x3d1ac6e0	0.03778732
9	0x3cdc083c	0.026859395
10	0x3d03c3ac	0.03216903
11	0xbbcf1ffc	-0.0063209515
12	0x3d1eb6c8	0.038748533
13	0x3cc229e8	0.023701623
14	0x3d2d1d90	0.04226452
15	0x3da55ffe	0.0807495
16	0xbc0cbad8	-0.008589469
17	0xbb356a14	-0.0027681636
18	0x3d0c851f	0.03430664
19	0x3b237775	0.0024943028
20	0x3db2ae26	0.087246224
21	0xbcb1b719	-0.021693753
22	0x3d8bae90	0.068204045
23	0xbd1353f0	-0.03596872
24	0x3cc73b1d	0.02432018
25	0x3cf4d82b	0.029888233
26	0x3d660717	0.056159105
27	0x369fe6c0	4.765432e-06
28	0x3c848b45	0.01617969
29	0x3d5bb652	0.05364067
30	0xbcb5b0dc	-0.02217906
31	0xbc8b18c9	-0.016979592
