nn_weights/mnist_nn-64.onnx (onnx, 102934 bytes, 4 tensors)

sequential/dense_1/MatMul/ReadVariableOp:0 f4 [32, 10]
00000000: 5151 4a3f 3326 48bf 2d9b dbbd b0dd 73bd
00000010: 9069 10bf 9139 dfbe 299c 633f b030 76bf
00000020: eedb 993d 17d2 2bbf ee38 02c0 0c94 f53e
00000030: d512 e63b 3996 8e3f 979e febe 5031 793e
00000040: 14aa b9bf 6e0f c3bf 235c 103e fac2 3fbe
00000050: 72de 52be 65d5 8cbf f822 683f 795a ff3c
00000060: 0646 9fbf f9e9 4d3f 4b67 b2bf 761d 603e
00000070: c96c ad3d 2422 32be be69 173f 2e26 b63e
00000080: 09dc cb3e 2e0c 8fbf 5419 963d 6096 c33e
00000090: 1094 293f 583b aebf 7721 f3bb 7c20 3dbe
000000a0: 20fa f0be 5f46 a6bf 7581 4c3f 390f 003f
000000b0: f52c 5fbe 9b15 203e 93f1 963e 2e71 28bf
000000c0: 5a3f 4bbf 2dd9 d5bf 6f35 d73e aa09 b1bf
000000d0: 433c b7bd 73bc 39bf e398 d83e 7d5c 93be
000000e0: eadc 9e3e 0743 103f 1a93 1d3e 3e6e 9d3c
000000f0: 3227 9f3e 56ff 0e3e 9ef0 29c0 e714 38be
00000100: 87b3 db3e 1398 763f 5a08 173f c452 66bf
00000110: 925c 8b3e 8041 3c3f 6b36 2f3f 34a9 5ebf
00000120: 2098 0dbf 872f 213f 00e8 bbbf 7cea d33e
00000130: cfe6 19bf bbd6 0f3f ab07 8d3d ce4f 60bf
00000140: eebd 453f 2052 37bd eeec 403f 57e9 a23e
00000150: 1921 37c0 db6d 27be 368a 37bf 7fd2 083f
00000160: 0b1b 1fbe 0f88 95be 7b31 46be 41a8 6a3f
00000170: f560 d93e 07e6 fb3e a39b 69bf 93f7 e8bf
00000180: 8bb0 fdbf 2bb6 233f 6dc6 97be 711e 353f
00000190: 201f fdbe c56d 073f 1d89 db3d 6c83 dbbf
000001a0: 7651 033f e9ca 86bf 5781 5a3f 250d 00bf
000001b0: 960b c23e ef7f 323f 94bc 5ebf a83b 0c3e
000001c0: 175a 5a3f f4de 233f 3935 11bf f683 0ec0
000001d0: 2bd6 9bbf 0dd7 1a3f cb6a 163e 15ab f93e
000001e0: b394 6f3f 9281 06bf fc20 18bd 82f4 f73e
000001f0: a373 35c0 30fd 653f 5429 473e 9a69 a5be
00000200: 0f1b 65bf d5ed b5be a638 a53f 7da9 6cbf
00000210: ebf0 413f c714 8e3e 5105 8a3e e074 9ebf
00000220: ac71 0bbf 1d1b c0be bd91 e6bf c943 1e3f
00000230: d230 6fbf e620 383f dc18 2d3f cc66 1c3f
00000240: d8f7 dabf ec34 9cbe f619 3a3e 2b05 033f
00000250: efc1 643e ec0a d7bf 57fa c8be 871b 883e
00000260: e498 13bf a014 343e f3f9 743f dbfe 2dbe
00000270: e840 e2bf 454b 3f3f 7127 593e 0103 33bd
00000280: 0da3 e9be ab1a 9b3f 78c4 01c0 d95d 693f
00000290: e68a 673f 562d 8bbf 51cb 4cbf 7202 393f
000002a0: 9ba6 f6bf 0e57 523f f543 95bf 0c95 363f
000002b0: 8362 8c3f 5d69 edbe d032 cebe abf8 08bf
000002c0: cae1 8c3b cc5b 423e cfda 71be c5c1 f7bf
000002d0: d9d9 a1bf e694 00c0 6279 55bf 1cd3 443f
000002e0: d542 da3e 8353 003e 2532 b7bf 123a 353c
000002f0: 663c 483d d3c0 2b3f 8d16 903d 9308 fdbe
00000300: 2fd6 33be 7774 4e3e 1942 50be 3cc7 ef3e
00000310: c6e9 7b3e 0fad f8bf 7e62 043f 99cc 86bf
00000320: ef4c 7ebf be56 c93e 632d 59be d809 fe3d
00000330: c9b4 b7be 74c5 b3be ac14 8f3e 0342 a9bf
00000340: 6074 223f 423a 07bf e8bd 2e3f 3253 d5bf
00000350: 1356 9dbe c4b9 e8bd 2948 173d 1aef 9f3e
00000360: d742 e8be 73b6 eebe 0179 183e 694b 2dbe
00000370: 1f96 fd3e bd8e a2bf 209e 01c0 f0dd b9bf
00000380: 00bd a93f 0747 783f 982d 9b3f 47b0 623e
00000390: 3b28 523d 3fd0 44bf a310 67bf ca95 28bf
000003a0: 6334 a43e 5a57 e2be 24cb b83e 5b40 a0bf
000003b0: 611d 1b3f 2896 813f 8bbb a8bf fd23 d93e
000003c0: 8a82 80bd 0443 a3bf 151a 693e 1c91 42bf
000003d0: 69b0 1d3f 5b38 bbbe aa47 463e 264c 073e
000003e0: 2f83 323f 8167 4a3e 457e d6bd e453 b3bf
000003f0: d6d7 093e f686 3a3f 6692 403f ee8e 213e
0.7903033 -0.7818329 -0.10722957 -0.05953759 -0.56411076 -0.43598607 0.88910156 -0.9616804
0.075126514 -0.67117447 -2.0347247 0.47964513 0.007021288 1.1139594 -0.4973037 0.24335217
-1.4505029 -1.5239084 0.14097647 -0.18726721 -0.20592669 -1.1002623 0.9067836 0.03117107
-1.2443244 0.8043514 -1.3937773 0.21886238 0.08468015 -0.17395836 0.59145725 0.35576004
0.3981631 -1.1175592 0.0732905 0.38200665 0.6624155 -1.361186 -0.007419761 -0.18469423
-0.4706583 -1.2990226 0.79885036 0.5002323 -0.21794493 0.15633242 0.29481182 -0.657977
-0.7939354 -1.6706902 0.42032954 -1.3831074 -0.08947041 -0.72553176 0.42304143 -0.287815
0.3102792 0.56352276 0.15388146 0.019217607 0.3108459 0.1396459 -2.655311 -0.17976724
0.42910406 0.96325797 0.5899712 -0.8997004 0.27219063 0.73537445 0.6844241 -0.86976933
-0.5531025 0.62963146 -1.4680176 0.41389835 -0.6011781 0.5618703 0.06886228 -0.8762177
0.77242935 -0.044756055 0.75361526 0.3181865 -2.8613951 -0.163505 -0.7169527 0.5344619
-0.1553766 -0.29205367 -0.19354813 0.91662985 0.42456785 0.49198934 -0.9125311 -1.8200554
-1.9819502 0.6394984 -0.29643574 0.70749575 -0.4943781 0.5290187 0.10719512 -1.7149482
0.51296175 -1.0530673 0.85353607 -0.50020057 0.37899464 0.6972646 -0.870065 0.13694632
0.85293716 0.64012074 -0.56721836 -2.2268043 -1.2174734 0.6048439 0.14689176 0.48763338
0.9358627 -0.5254146 -0.03714083 0.48428732 -2.835183 0.8983946 0.19449359 -0.3230713
-0.89494413 -0.35533014 1.2907913 -0.9244612 0.75758237 0.27750227 0.2695718 -1.2379417
-0.54470325 -0.37520686 -1.8013226 0.6182218 -0.9343387 0.719252 0.6761606 0.61094356
-1.7106886 -0.30509126 0.18173966 0.5117976 0.22339605 -1.6800208 -0.39253494 0.26583502
-0.5765517 0.17585993 0.9569389 -0.16991751 -1.7676058 0.7472423 0.21206452 -0.043704037
-0.4563221 1.2117513 -2.0276165 0.91158825 0.9044632 -1.087321 -0.79997736 0.72269356
-1.9269594 0.82164085 -1.1661364 0.7132118 1.0967563 -0.46369448 -0.40273142 -0.5350444
0.004299377 0.1898033 -0.23618625 -1.9356009 -1.2644607 -2.009088 -0.8338834 0.7688463
0.42629114 0.12531857 -1.4312178 0.011061208 0.048885725 0.670911 0.07035551 -0.49420604
-0.17562173 0.20161615 -0.20337714 0.4683169 0.24600896 -1.9427813 0.5171279 -1.0531188
-0.9933614 0.39323992 -0.2120872 0.12404221 -0.35880116 -0.35111582 0.2794546 -1.322327
0.63458824 -0.5282327 0.68258524 -1.6666014 -0.30729732 -0.11363557 0.03693405 0.31237108
-0.45363495 -0.46623573 0.1488991 -0.16923298 0.49528596 -1.269981 -2.0252762 -1.4520855
1.3260803 0.9698338 1.2123289 0.22137557 0.051307898 -0.7688026 -0.9025976 -0.6585356
0.32071218 -0.4420727 0.36092484 -1.251964 0.60591704 1.0123949 -1.3182234 0.4241027
-0.06274898 -1.2754827 0.22763856 -0.7600267 0.61597306 -0.36566433 0.19363275 0.13212642
0.6973142 0.19766046 -0.10473303 -1.4009976 0.13461241 0.72862184 0.75223386 0.1577718

sequential/dense_1/BiasAdd/ReadVariableOp:0 f4 [10]
00000000: bb39 45be 4c0b 763e f71a 7c3e f699 abbe
00000010: 3cfa 523e 35c6 cb3e 166f 183c 708e b73e
00000020: 3bcd 1ebf 1346 30be
-0.19260304 0.24027747 0.24619661 -0.335159 0.2060327 0.39799657 0.009303829 0.3585086
-0.62031907 -0.17214231

sequential/dense/MatMul/ReadVariableOp:0 f4 [784, 32]
00000000: 1213 2b08 9ad6 9b07 1f3f 0307 60ee 0f06
00000010: 60b2 be07 80b2 9986 209b 9005 be11 1088
00000020: b10f 1b08 c0c2 0f08 eb12 f007 5ced 3e88
00000030: ba3f ea07 50db b007 d259 832e 438a ef07
00000040: 6000 2587 38c5 0488 172a f207 2248 2988
00000050: 68f4 b687 bc28 2d08 9630 a007 46d6 6407
00000060: 8b5a 0f88 231e 27b9 8e6d a187 f609 ba86
00000070: 51d2 1f88 bc11 1d07 f851 3e88 34a4 6886
00000080: 0690 c587 0089 d407 d488 d9b2 698c 3f08
00000090: 6a1a 8987 946b fe06 3afc 1508 19cf b207
000000a0: b5b3 d707 68d7 f687 2801 3408 f4b6 d707
000000b0: a30a 2b88 9c96 b807 4a3e 3208 bc2b 0808
000000c0: bf6a 2c88 38e2 b387 5879 8f87 c25c c686
000000d0: a49e 2d08 2007 e187 d4b5 7307 42e7 8b07
000000e0: 1cc8 1287 e681 e986 7c69 0f08 5098 4e05
000000f0: 165b 8087 4e06 e128 bf64 eb87 3c47 f507
00000100: 10df 2208 6777 0188 c48a 3088 7ed5 9587
00000110: e273 e487 228f 3308 44d0 3e07 78b6 1987
00000120: 3813 e907 649a 0888 6098 5487 6cef 0587
00000130: c842 c187 52a5 0a07 c08b 5e86 dc84 3e88
00000140: 8658 3808 044b 6287 1057 db07 6f28 2187
00000150: 408c 3a88 3cbc 3087 6e43 9b87 f4d8 df07
00000160: 2bf1 1208 c90b 2088 f0e4 2286 50df b085
00000170: b4eb 8087 8092 8485 f01f 0f87 8073 9f07
00000180: be2a 0f88 c071 1608 18a1 8206 f076 5586
00000190: 7e0a 2088 702f f406 3c30 c307 ee15 0a87
000001a0: e026 5f85 1644 1488 12a3 c686 ea15 9287
000001b0: fe89 0108 2442 0f06 e011 0887 a318 9c07
000001c0: c2a4 442a b014 4b86 a4a8 1f08 7024 9b07
000001d0: ea52 4307 8eeb 2708 aa63 b107 5029 9986
000001e0: 851c 0188 3329 c207 7e03 1a08 78fe 3f06
000001f0: 907f 2787 c43d 3b88 a265 3688 a253 0508
00000200: 7d79 a887 d0b8 f107 9a06 6887 c6eb ee07
00000210: 5c67 8e05 d047 3f06 a847 8687 bc6e 0788
00000220: 7c8c 5207 ee3c 0888 865b ee07 f35d 2008
00000230: 9402 d207 2496 e087 c07c 3388 385c a906
00000240: e08a 9207 5275 0b08 98e0 a807 91bc f507
00000250: f4b2 d507 50a8 d907 139b d807 83b6 1508
00000260: 00d8 3a06 1946 0307 586d c687 7043 4388
00000270: d839 b687 ce5c e806 f43d 9c06 ec1c aa07
00000280: 4030 fe07 9c92 3d88 1d71 f487 32f5 0888
00000290: 28a5 7c87 1009 3808 dcbe 8407 4a48 0287
000002a0: 5021 7d07 8ced f806 1e26 0508 4a54 2388
000002b0: 7f11 7407 04a2 3308 9ca6 5a87 540e f006
000002c0: 9467 b607 e5c3 0e88 583f fc87 3050 6a07
000002d0: ee38 2788 4450 3688 26ca 8a87 608e 3306
000002e0: 6ce5 ac07 cd51 1f88 78a2 a007 86ce d987
000002f0: 58d4 8a07 aa90 b487 7b73 3708 a89d ac07
00000300: e0f7 8a06 cd1e 3608 fcc7 9e06 fac5 fc87
00000310: 9c49 5c87 0631 0b08 f098 3b88 a8fa e507
00000320: 0e58 0088 d3ac 0b08 b6ce ec87 80b5 ee87
00000330: e178 b907 0130 5b2d 101c f734 22e9 7487
00000340: 0b24 be07 0023 6c06 5656 4188 f8fa 7207
00000350: 002b 9287 a2e7 1308 f043 e286 1a26 2108
00000360: 5cb8 bd07 c0d9 4407 4bb0 d307 2b01 4b07
00000370: 2a6a 2188 e476 2a88 2480 0c88 057a 1f88
00000380: 0006 2386 00fe 8787 3ede ba07 6d38 2388
00000390: cc3d 0887 6a4e 3b88 34f3 0e07 916c 3188
000003a0: 4007 c830 d6e2 a287 5427 1108 e0c1 a187
000003b0: c0dd b385 508d 2788 202f 3588 c254 a507
000003c0: 9001 0e88 80bd d505 9ef7 8987 00c4 fe06
000003d0: f4e0 8786 a287 1588 c0a7 f886 ea18 6087
000003e0: f7b4 2987 5a02 2407 e70e b507 3062 ab87
000003f0: a00a 0c06 8069 3686 d291 d306 6550 1808
5.148086e-34 2.344794e-34 9.873894e-35 2.707044e-35 2.8692862e-34 -5.7814486e-35 1.3598679e-35 -4.335428e-34
4.666206e-34 4.3261425e-34 3.6122305e-34 -5.745506e-34 3.5245862e-34 2.6610437e-34 5.9731456e-11 3.6041986e-34
-1.241333e-34 -3.9954135e-34 3.6436851e-34 -5.094138e-34 -2.7527965e-34 5.2108177e-34 2.410268e-34 1.7215783e-34
-4.313893e-34 -0.00015937588 -2.4288978e-34 -6.998006e-35 -4.809455e-34 1.1816579e-34 -5.72724e-34 -4.3754988e-35
-2.9725915e-34 3.1978736e-34 -2.5324347e-08 5.7642023e-34 -2.0628994e-34 9.570225e-35 4.5134547e-34 2.6904184e-34
3.2455227e-34 -3.714057e-34 5.416814e-34 3.2457135e-34 -5.1470944e-34 2.7773763e-34 5.3638147e-34 4.097742e-34
-5.1884847e-34 -2.7065886e-34 -2.1587568e-34 -7.461562e-35 5.2246775e-34 -3.3858425e-34 1.8334723e-34 2.1050317e-34
-1.1042626e-34 -8.783573e-35 4.3156493e-34 9.714049e-36 -1.9312835e-34 2.4982752e-14 -3.5418083e-34 3.690537e-34
4.901231e-34 -3.895988e-34 -5.312619e-34 -2.2544508e-34 -3.4373737e-34 5.4034105e-34 1.4355215e-34 -1.1564063e-34
3.506924e-34 -4.1107497e-34 -1.5993886e-34 -1.0076168e-34 -2.9078663e-34 1.0430549e-34 -4.185623e-35 -5.733222e-34
5.5474545e-34 -1.7024395e-34 3.3002628e-34 -1.2124176e-34 -5.61372e-34 -1.3296085e-34 -2.336144e-34 3.3680824e-34
4.421877e-34 -4.81621e-34 -3.063701e-35 -1.6632993e-35 -1.9397833e-34 -1.2467036e-35 -1.076751e-34 2.3991546e-34
-4.308274e-34 4.5272696e-34 4.913727e-35 -4.014823e-35 -4.816058e-34 9.18523e-35 2.9368689e-34 -1.0388411e-34
-1.049255e-35 -4.4617165e-34 -7.471893e-35 -2.1980518e-34 3.8981734e-34 2.6943903e-35 -1.0236756e-34 2.3486751e-34
1.7465459e-13 -3.8195255e-35 4.804556e-34 2.3343224e-34 1.4694536e-34 5.0531628e-34 2.6690577e-34 -5.7612907e-35
-3.885305e-34 2.921409e-34 4.6346794e-34 3.6110061e-35 -1.2601171e-34 -5.634587e-34 -5.48881e-34 4.012154e-34
-2.5349235e-34 3.6370273e-34 -1.745568e-34 3.5948835e-34 1.3391584e-35 3.5975867e-35 -2.0204195e-34 -4.0755252e-34
1.5839929e-34 -4.0997634e-34 3.5864053e-34 4.8258685e-34 3.1598803e-34 -3.3792019e-34 -5.4012496e-34 6.370624e-35
2.2049262e-34 4.19667e-34 2.5409835e-34 3.6974332e-34 3.2153857e-34 3.2749456e-34 3.2591212e-34 4.50526e-34
3.5141404e-35 9.875944e-35 -2.9855995e-34 -5.875995e-34 -2.7418314e-34 8.7405065e-35 5.877171e-35 2.5595756e-34
3.824603e-34 -5.7047457e-34 -3.6779522e-34 -4.1214237e-34 -1.9006908e-34 5.538114e-34 1.997333e-34 -9.801357e-35
1.9043394e-34 9.3636275e-35 4.006804e-34 -4.915011e-34 1.8361661e-34 5.40563e-34 -1.6449459e-34 9.029902e-35
2.7445194e-34 -4.2961844e-34 -3.7953976e-34 1.7627768e-34 -5.0321655e-34 -5.4862985e-34 -2.0882744e-34 3.377076e-35
2.6014526e-34 -4.794348e-34 2.4169615e-34 -3.2771915e-34 2.0888737e-34 -2.7168416e-34 5.5205306e-34 2.5972346e-34
5.227405e-35 5.480484e-34 5.9726845e-35 -3.8033106e-34 -1.6572592e-34 4.188642e-34 -5.6453043e-34 3.4603413e-34
-3.8622107e-34 4.2031945e-34 -3.5630827e-34 -3.5916936e-34 2.7906752e-34 1.2459368e-11 4.6027753e-07 -1.8425031e-34
2.8609207e-34 4.441238e-35 -5.818031e-34 1.827981e-34 -2.1992912e-34 4.4508486e-34 -8.5111577e-35 4.8493963e-34
2.8545916e-34 1.4809392e-34 3.1851367e-34 1.5272366e-34 -4.857397e-34 -5.129727e-34 -4.2280346e-34 -4.7990755e-34
-3.06613e-35 -2.046183e-34 2.8116792e-34 -4.9117356e-34 -1.0249663e-34 -5.636544e-34 1.0754364e-34 -5.339162e-34
1.4553976e-09 -2.4508373e-34 4.368058e-34 -2.4338537e-34 -1.6914537e-35 -5.0420847e-34 -5.45231e-34 2.4876257e-34
-4.2733407e-34 2.0100035e-35 -2.0759005e-34 9.5832177e-35 -5.1111895e-35 -4.499749e-34 -9.353372e-35 -1.6859209e-34
-1.2767328e-34 1.233868e-34 2.7242612e-34 -2.578693e-34 2.633888e-35 -3.4307905e-35 7.958364e-35 4.583534e-34

sequential/dense/BiasAdd/ReadVariableOp:0 f4 [32]
00000000: 958e 88bc 9f2e ebbc f83f 5dbc e76f 823d
00000010: 018f 2c3d f483 183d 7fc2 c03c dc46 f53c
00000020: 82be 923c cd53 203d 4f38 db3c cf30 28bd
00000030: 3009 c53c d2eb 7d3a 1fd0 22bc d76d 653d
00000040: 708e 473d ef4c 323d a1e9 f1b9 03d3 9ebc
00000050: 814f 66bc 3b10 0ebc 8db4 1c3d 9ce9 963d
00000060: 4050 193c e6cf 1b3c be25 ea3d 0d44 dd3c
00000070: 305e 4ebd a157 973d b32b 563d a5a3 203d
-0.01666955 -0.028708754 -0.013504021 0.06369 0.042128567 0.037235215 0.023530243 0.029941015
0.017913107 0.03914242 0.026760248 -0.041062173 0.024052233 0.0009686324 -0.009937315 0.056012955
0.048719823 0.0435304 -0.0004614117 -0.019387728 -0.014057041 -0.008670862 0.038258124 0.07368776
0.009357512 0.009510016 0.1143298 0.027009988 -0.050382793 0.07389761 0.05228777 0.039218564
