onnx_models/fashion_mnist_nn-64.onnx (onnx, 103020 bytes, 4 tensors)

sequential_1/dense_3/MatMul/ReadVariableOp:0 f4 [32, 10]
0	0xbefee0ba	-0.49780828
1	0x3e8822d1	0.26589063
2	0x3e9f4b39	0.31112078
3	0xbedc14c2	-0.42984587
4	0x3db3f168	0.08786279
5	0x3cfe4653	0.031039393
6	0xbee0f20a	-0.4393466
7	0xbeb7d074	-0.35901225
8	0x3ed40933	0.41413268
9	0x3f0ce393	0.5503475
10	0xbe8d900b	-0.2764896
11	0xbe32dc6e	-0.174669
12	0xbea3050b	-0.31839785
13	0xbf1c782d	-0.61120874
14	0xbe27fd4c	-0.16405219
15	0x3e10d55e	0.14143893
16	0xbf14a2c6	-0.5806087
17	0x3f21e36c	0.63237643
18	0x3e916fb4	0.28405535
19	0x3f08cd6a	0.53438437
20	0x3c8a58c9	0.01688804
21	0xbf88f460	-1.0699577
22	0xbcdc8037	-0.026916606
23	0x3f048a8f	0.51773924
24	0xbcc3346f	-0.023828713
25	0xbf58a590	-0.8462763
26	0x3e010b26	0.12601909
27	0x3f61a29f	0.88138765
28	0xbde5ff6e	-0.1123036
29	0x3ee2fef2	0.44335133
30	0xbe38fe83	-0.18065839
31	0xbf836dfc	-1.026794
32	0x3d20d067	0.039261248
33	0x3ec6373b	0.38714013
34	0x3e4ab79d	0.19796605
35	0x3f4bcaf1	0.7960654
36	0xbf11e921	-0.5699635
37	0xbec88494	-0.3916365
38	0x3f757894	0.9588711
39	0xbf3e3fac	-0.74315906
40	0xbee0e506	-0.4392473
41	0xbfee414d	-1.8613678
42	0x3e138778	0.14407146
43	0x3e8b9c09	0.27267483
44	0x3dffaa37	0.12483638
45	0x3f09f479	0.5388866
46	0x3e06ad97	0.13152157
47	0x3f398525	0.7246879
48	0x3e922916	0.2854697
49	0xbee8eaf2	-0.4549175
50	0xbe82b083	-0.25525293
51	0x3f10ee26	0.56613386
52	0xbeaeee2a	-0.3416608
53	0x3ecfeb77	0.40609333
54	0xbf1a1fb1	-0.6020461
55	0xbf6adc33	-0.9174225
56	0x3db65dcf	0.08904611
57	0x3e626032	0.22107008
58	0xbede151e	-0.43375486
59	0x3f462f08	0.77415514
60	0x3f03d78d	0.5150078
61	0xbeedc7b2	-0.46441418
62	0xbe316cdb	-0.17326681
63	0xbe071953	-0.13193254
64	0x3ec803d2	0.39065415
65	0xbfbc3faa	-1.4706929
66	0x3efca074	0.49341166
67	0xbfd37c4e	-1.652231
68	0xbead1670	-0.3380618
69	0xbfa12e1b	-1.2592195
70	0x3dfc4958	0.12318677
71	0x3ea8358b	0.3285335
72	0xbe396473	-0.18104725
73	0x3f2ae85f	0.6676082
74	0xbe89bd0d	-0.26902047
75	0x3f895f49	1.0732204
76	0xbea311eb	-0.31849608
77	0xbfb6320b	-1.4234022
78	0x3f3dd02a	0.7414576
79	0xbf6b8d25	-0.92012244
80	0x3e89167c	0.26774967
81	0x3f56586a	0.8372866
82	0xbef051ae	-0.46937317
83	0xbf5d2100	-0.8637848
84	0x3ec177e4	0.37786782
85	0xbf148f43	-0.580311
86	0x3d3e1997	0.046411123
87	0x3f7557f0	0.95837307
88	0x3efbc553	0.49173984
89	0xbf8286cf	-1.019739
90	0x3e31aa63	0.17350154
91	0xbdab85de	-0.083751425
92	0x3e9fed4c	0.3123573
93	0x3e65f4ba	0.22456637
94	0x3eb70c29	0.35751465
95	0x3eed3ad6	0.4633395
96	0x3e096f8b	0.13421457
97	0xbfd71cf5	-1.6805712
98	0xbf11862f	-0.5684537
99	0xbf64d385	-0.89385253
100	0xbe54f7b6	-0.20797619
101	0xbe289153	-0.16461687
102	0x3e26eb2d	0.1630065
103	0xbe46cda0	-0.19414377
104	0x3e1fae3b	0.15593807
105	0xbf7b0f9e	-0.98070705
106	0xbe55d748	-0.20882905
107	0xbe52b538	-0.20576942
108	0xbf0b5160	-0.54421043
109	0x3ec40f84	0.38293087
110	0x3e29ab4c	0.16569251
111	0xbeb7e6f3	-0.35918388
112	0x3e4208e8	0.1894871
113	0xbd8e442a	-0.06946595
114	0x3e96ea7d	0.29475775
115	0xbe916c1d	-0.28402796
116	0x3ebd10d2	0.36926895
117	0xbe124171	-0.14282776
118	0x3eb76441	0.35818675
119	0xbe3d601b	-0.18493693
120	0xbee9af0f	-0.45641372
121	0x3dd1ef83	0.10250761
122	0xbc1eafe0	-0.009685487
123	0xbc8d5419	-0.017252015
124	0x3c7c1ad7	0.0153872585
125	0xbef92065	-0.48657528
126	0xbe7eebf1	-0.24894692
127	0x3e9690b9	0.2940729
128	0xbf1ab9ba	-0.60439646
129	0x3ec84f0c	0.39122808
130	0x3efcb225	0.49354663
131	0x3e98012a	0.29688388
132	0x3f13f2cc	0.57792354
133	0xbeb92bc5	-0.36166206
134	0xbf77c6fd	-0.9678801
135	0x3f044aa4	0.5167639
136	0xbf85347a	-1.040664
137	0x3efb0d99	0.49033812
138	0xbfc50dc0	-1.5394821
139	0x3ca60937	0.020268066
140	0x3eef5e10	0.46751451
141	0xbf9ffbe4	-1.2498746
142	0xbe4905cd	-0.19631119
143	0xbf6eadce	-0.93233955
144	0xbeee21a0	-0.4651003
145	0xbe87a915	-0.26496187
146	0xbe6ca559	-0.2310995
147	0xbf13f905	-0.5780185
148	0x3f83bcd6	1.0292003
149	0x3ee28be3	0.4424735
150	0xbf066822	-0.52502644
151	0xbf7316ee	-0.9495686
152	0xbdeef2f7	-0.116674356
153	0xbf271990	-0.6527338
154	0x3d3a0015	0.045410234
155	0xbd69183c	-0.056907877
156	0x3e289b89	0.16465582
157	0x3e52cd24	0.20586067
158	0x3f0ec79f	0.5577335
159	0x3eada45b	0.33914456
160	0xbf1522d1	-0.5825625
161	0xbf4e0a4c	-0.8048446
162	0xbed77a0b	-0.420853
163	0xbd51ee78	-0.051252812
164	0x3f072574	0.52791524
165	0x3ed92403	0.42410287
166	0xbdc96b02	-0.09834863
167	0xbee40251	-0.44533017
168	0xbf08733f	-0.5330085
169	0x3f5cd0bb	0.86256
170	0xbf9e90b7	-1.2387913
171	0xbfedf0fb	-1.8589166
172	0xbf514fff	-0.8176269
173	0xbfe2a10f	-1.7705401
174	0xbe85d533	-0.2613922
175	0x3fea2067	1.8291138
176	0x3fa0fd1a	1.257724
177	0xbf9a7b88	-1.2068949
178	0xbfdb2d71	-1.7123243
179	0x3e4ffe24	0.2031179
180	0x3e99c41c	0.30032432
181	0x3e3916cb	0.18075101
182	0x3e29f9bb	0.16599171
183	0x3e37e988	0.17960179
184	0x3e094d90	0.13408494
185	0xbf25d7c9	-0.64782387
186	0x3e3be616	0.1834949
187	0xbfc4d77c	-1.5378261
188	0xbec9c81c	-0.39410484
189	0xbf1ad231	-0.60476977
190	0xbf413fb0	-0.75487804
191	0x3f9cf58d	1.2262436
192	0xbf8689c9	-1.0510799
193	0x3f0f11d7	0.55886596
194	0x3edb1918	0.42792583
195	0x3f9174ff	1.1363829
196	0xbf9ff8c6	-1.2497795
197	0xbe9d047d	-0.30667487
198	0xbe32a155	-0.17444356
199	0xbf70510c	-0.9387367
200	0x3d380138	0.044923037
201	0x3e4f0d2b	0.20219867
202	0xbd55b237	-0.052171912
203	0x3dca257f	0.09870433
204	0xbe0a2288	-0.13489735
205	0x3d04275a	0.03226409
206	0xbe66fe9e	-0.22558066
207	0xbded3c7a	-0.115838006
208	0x3e27868e	0.16359922
209	0x3df88748	0.12135178
210	0xbe825ae6	-0.25459975
211	0xbf065166	-0.52467954
212	0xbf7b358e	-0.9812859
213	0xbf8d037b	-1.1016687
214	0xbf820f5d	-1.0160939
215	0x3f82b2e4	1.0210843
216	0xbf323e78	-0.6962657
217	0x3e5ead7d	0.21745868
218	0xbcf97139	-0.030449497
219	0x3e27a946	0.16373166
220	0x3e965985	0.29365173
221	0x3e6775ab	0.2260348
222	0xbc1e046d	-0.00964461
223	0xbe2cb942	-0.16867545
224	0x3e1a04ad	0.15040846
225	0xbd4a3e62	-0.0493759
226	0x3df752a4	0.12076309
227	0xbe23f622	-0.16011861
228	0x3c67685c	0.014124002
229	0xbe1cc1c6	-0.15308294
230	0x3e2a7158	0.166448
231	0x3f915fb8	1.1357336
232	0x3e01826a	0.12647405
233	0xbf3971a2	-0.72439015
234	0x3ec3dbad	0.38253537
235	0x3f713dc8	0.94234896
236	0x3c130c18	0.008975051
237	0xbf7cee29	-0.98800904
238	0x3ecadbd2	0.39620835
239	0xbfa31253	-1.2739967
240	0xbddae589	-0.106883116
241	0x3e9adf34	0.30248415
242	0xbdcab2f1	-0.098974116
243	0x3edfbfa6	0.43700904
244	0x3e5e0d17	0.21684681
245	0xbfb6df3f	-1.4286879
246	0x3cefe929	0.029285984
247	0xbf8fb70d	-1.1227738
248	0x3ecea128	0.40357327
249	0xbf68bc8f	-0.9091272
250	0xbf4edfd2	-0.8081027
251	0x3f602cd7	0.8756842
252	0x3f17fc1c	0.59369063
253	0xbe14f1ad	-0.14545317
254	0x3f088f5e	0.5334376
255	0xbed5cf06	-0.4175951

sequential_1/dense_3/BiasAdd/ReadVariableOp:0 f4 [10]
0	0x3e48094b	0.19534795
1	0xbef6e28a	-0.4821971
2	0x3bfb5160	0.0076696128
3	0x3ebc06d2	0.36723953
4	0xbf537e5a	-0.8261467
5	0x3fb94275	1.4473406
6	0x3e4a1ab9	0.19736756
7	0x3eaf0643	0.34184465
8	0xbf115d29	-0.56782776
9	0xbf7e2b93	-0.9928524

sequential_1/dense_2/MatMul/ReadVariableOp:0 f4 [784, 32]
0	0x35d2a765	1.5694937e-06
1	0x22c577ad	5.352367e-18
2	0x35aa861c	1.2705018e-06
3	0xb519ef2e	-5.7344994e-07
4	0x358e870c	1.0619128e-06
5	0xb65a2271	-3.250458e-06
6	0x34882690	2.5360032e-07
7	0xa7a5905f	-4.5953227e-15
8	0x27c33e87	5.4191165e-15
9	0x2400ea1a	2.7953867e-17
10	0x35ce26b0	1.5359456e-06
11	0x06bea0a6	7.170611e-35
12	0xb4088f40	-1.2718101e-07
13	0x28105cca	8.013726e-15
14	0xa79314a5	-4.082308e-15
15	0x35e551f9	1.7085687e-06
16	0x24826fee	5.656813e-17
17	0xa3880bb4	-1.4750106e-17
18	0xb2cddac0	-2.3964617e-08
19	0x36359b48	2.7061487e-06
20	0x2884e520	1.4754311e-14
21	0x28531d7a	1.1719245e-14
22	0x07844b08	1.9905252e-34
23	0xb5eb5789	-1.753434e-06
24	0x35fbf3d8	1.8771925e-06
25	0xb554e734	-7.93126e-07
26	0xb55e61f7	-8.2844e-07
27	0xb43685c0	-1.6998729e-07
28	0x35c93626	1.4991426e-06
29	0xa56a407a	-2.031811e-16
30	0x26cf7faa	1.4398114e-15
31	0x27b9a750	5.1529215e-15
32	0xb99d9a76	-0.00030060456
33	0x36beb2e8	5.6832687e-06
34	0xb9e6429a	-0.0004391864
35	0xb7855150	-1.58927e-05
36	0xb93c916c	-0.00017983251
37	0xba069aab	-0.00051347417
38	0x39b1bb5d	0.00033899667
39	0x37052b0e	7.937442e-06
40	0xb9f6158f	-0.0004693684
41	0x39eb6f7c	0.00044905755
42	0x398a376d	0.00026362707
43	0xa844b36c	-1.09190916e-14
44	0x39210d34	0.00015359075
45	0x3842aa7c	4.641198e-05
46	0x384838a4	4.7736467e-05
47	0x392219b2	0.00015459096
48	0xb954ed2c	-0.00020306249
49	0x3a33149d	0.000683138
50	0xb766844c	-1.3739871e-05
51	0x37ea2bf0	2.7915434e-05
52	0xa6daeb8e	-1.5190636e-15
53	0xb96a464b	-0.00022342165
54	0x9c80ff3c	-8.536306e-22
55	0x3994a426	0.0002835106
56	0x38069e86	3.2095726e-05
57	0xba2c2ea8	-0.00065682316
58	0x39de3ba0	0.00042387564
59	0xb81d81f7	-3.7552756e-05
60	0xb77a8a8f	-1.4933422e-05
61	0x3a5471f1	0.0008104137
62	0x37b8406a	2.1964504e-05
63	0x378a72fd	1.6504428e-05
64	0xb98314e8	-0.00025001843
65	0xb9b4bc43	-0.0003447254
66	0x393fcec6	0.00018292209
67	0x38f52a47	0.00011690385
68	0xb883f8bd	-6.292898e-05
69	0x3a14a063	0.00056696514
70	0x39b3cccd	0.0003429413
71	0xb991fb18	-0.00027843635
72	0x39d0c256	0.00039817643
73	0x39247329	0.0001568316
74	0xb9afba4b	-0.000335174
75	0x274338c2	2.7092455e-15
76	0xb69ea7d6	-4.7283056e-06
77	0x3944f722	0.00018784081
78	0xba291cc6	-0.0006451126
79	0x3a1d4200	0.00059989095
80	0xb8e56e58	-0.00010940124
81	0x3ad617d5	0.0016334007
82	0x388e0de3	6.773674e-05
83	0xb8089adb	-3.2569147e-05
84	0x2845884d	1.0965252e-14
85	0x37758d2c	1.4636007e-05
86	0x1e1c085b	8.260299e-21
87	0xb9ee3676	-0.00045435474
88	0x388d6a41	6.743195e-05
89	0x3690fef8	4.3212167e-06
90	0x39833e50	0.00025032694
91	0x3906fc3a	0.00012873198
92	0xb8605ced	-5.3492306e-05
93	0x38337477	4.2785392e-05
94	0x390558df	0.00012716975
95	0x384f9d57	4.949918e-05
96	0x3ba3e9e4	0.005002247
97	0xb92fb3ab	-0.00016756232
98	0xbaf0ace5	-0.0018362073
99	0xba324162	-0.0006799904
100	0x399e296a	0.00030166964
101	0xbb365e5e	-0.0027827243
102	0xbb9674e7	-0.0045915726
103	0x3bc84e2a	0.0061128335
104	0x39be4594	0.00036291464
105	0xbc191e28	-0.009345569
106	0xbbb7c284	-0.005607905
107	0xa83a57aa	-1.0344083e-14
108	0xbbac536a	-0.005258967
109	0xbc174874	-0.009233583
110	0x3bff49a5	0.0077907615
111	0x3be97af8	0.0071252547
112	0xb9492add	-0.00019184822
113	0x3b577423	0.003287562
114	0xbba97774	-0.0051717106
115	0xb98d68c6	-0.00026971678
116	0x260b58be	4.834558e-16
117	0xb97c0775	-0.00024035371
118	0x9e6a9ae8	-1.2419891e-20
119	0x3b73161e	0.003709204
120	0x3b9b8f2a	0.004747291
121	0x3b14d9b8	0.0022712778
122	0xb9aca427	-0.000329287
123	0xbb592220	-0.0033131912
124	0xbba31ee8	-0.0049780495
125	0xbc3fd84b	-0.011709283
126	0xbb9c97e7	-0.0047788504
127	0xb99a6553	-0.0002944866
128	0x3b9eded9	0.004848343
129	0x3998870e	0.00029092323
130	0xbb7ad160	-0.003827177
131	0x3a9c33ca	0.001191729
132	0xbb5e723f	-0.0033942608
133	0xb984d9ec	-0.00025339366
134	0xbb69fcd2	-0.0035703671
135	0x3b561640	0.003266707
136	0x3afc18de	0.0019233485
137	0xbbf91d91	-0.0076024015
138	0xbb99fc30	-0.0046992525
139	0x279553d1	4.144668e-15
140	0xbb4eeef2	-0.0031575528
141	0xbc96f3e8	-0.01842685
142	0x3b891e68	0.004184533
143	0x3bdcc559	0.006737393
144	0xb80bbbba	-3.3315016e-05
145	0x3b01c3d7	0.0019800568
146	0xbba438ca	-0.0050116526
147	0x3b69f2e1	0.0035697746
148	0x276256ce	3.1410857e-15
149	0xba2b59fe	-0.0006536542
150	0x9f994baa	-6.4923196e-20
151	0x3bbee4ec	0.0058256295
152	0x3ba1776a	0.0049275653
153	0x3b75baa9	0.0037495291
154	0xbb79273a	-0.0038017766
155	0xbb836317	-0.004009615
156	0xbb8461eb	-0.004039993
157	0xbbc60c61	-0.006043956
158	0xbbbeb5e5	-0.0058200234
159	0x39f8f774	0.00047486613
160	0x3b4ef0f5	0.0031576727
161	0x39637178	0.00021690677
162	0xbbc392b7	-0.0059684175
163	0x3c02c937	0.007982544
164	0xbb99a404	-0.0046887416
165	0x3c8616e7	0.016368343
166	0xbc452704	-0.012033228
167	0x3c328ad1	0.010897354
168	0x390f5ca6	0.00013672057
169	0xbc20efa5	-0.009822761
170	0xbbca51bd	-0.0061742947
171	0xa92ec43e	-3.8805974e-14
172	0x3b9bc7c3	0.004754038
173	0xbca393fc	-0.019968025
174	0xbc7eeb8f	-0.015559091
175	0xbbd0c472	-0.0063710744
176	0xbb2b9bed	-0.0026185468
177	0x3b3afdb3	0.0028532564
178	0xbbb5bf10	-0.005546458
179	0x3c9955dd	0.0187177
180	0x2890f7f8	1.6094751e-14
181	0xbabc0260	-0.001434397
182	0x1f69b042	4.9485466e-20
183	0x3b9e5641	0.0048320596
184	0x3c634e94	0.013873715
185	0x3c46f598	0.012143515
186	0xbc981d5f	-0.018568693
187	0xbc72dcfa	-0.014823193
188	0x3b6b3b15	0.003589337
189	0xbb7738fd	-0.0037723177
190	0xbc3bdbaa	-0.011465946
191	0x3a3d2d19	0.0007216498
192	0x3b0a3e86	0.0021094396
193	0x375f0fa4	1.3295477e-05
194	0xbbe57f92	-0.007003733
195	0x3b411109	0.0029459617
196	0xbc499bd9	-0.012305223
197	0x3cd010bd	0.025398606
198	0xbc63a71c	-0.013894822
199	0x3c08b0c7	0.008342928
200	0x3aaee28e	0.0013342665
201	0xbc1842fb	-0.009293313
202	0xbbc754fd	-0.0060831294
203	0x28d40f75	2.3543432e-14
204	0x3c0d4986	0.008623486
205	0xbcb481f9	-0.022034632
206	0xbcab5c77	-0.020918114
207	0xbc3704b7	-0.011170558
208	0xbbee6821	-0.0072755967
209	0xbba867fc	-0.005139349
210	0xbb707d67	-0.003669584
211	0x3c890a3f	0.016728519
212	0x2a02b706	1.1609818e-13
213	0xbb62af43	-0.0034589327
214	0x9f9e26ae	-6.697959e-20
215	0x3ba2dd41	0.004970223
216	0x3c805318	0.015664622
217	0x3c6eaef4	0.014568079
218	0xbcb9efed	-0.022697413
219	0xbc88618b	-0.016648075
220	0x3c04133d	0.008061227
221	0x3b66b21f	0.0035201383
222	0xbc2edd45	-0.010672872
223	0xbaa5d9d3	-0.0012653418
224	0xbb1dd198	-0.0024081226
225	0xbb2363f8	-0.0024931412
226	0xbc22f667	-0.009946442
227	0xbc03c057	-0.008041463
228	0xbcbda21e	-0.023148593
229	0x3d11fbd8	0.035640568
230	0xbc069734	-0.008214761
231	0xbb133cff	-0.0022466776
232	0x3c1dd46c	0.009633165
233	0xbc177b66	-0.009245729
234	0xbc0c1756	-0.008550486
235	0xaa5ddf95	-1.9706314e-13
236	0x3c12f05c	0.008968439
237	0xbcd1660a	-0.025561351
238	0xbcc76416	-0.024339717
239	0xbc1c5e2e	-0.009543939
240	0xbc4c1250	-0.012455538
241	0xbc90141c	-0.017587714
242	0xbbb4d8c3	-0.005519004
243	0x3c10e66f	0.008844002
244	0xaacee601	-3.6752548e-13
245	0xbb8b1eac	-0.0042455997
246	0x9fe55008	-9.711767e-20
247	0x3be92006	0.007114413
248	0x3c6faa79	0.014628046
249	0x3c274580	0.010209441
250	0xbc62a925	-0.0138342725
251	0xbc926057	-0.017868204
252	0x3bb830fc	0.005621074
253	0x3bfd31f8	0.007726904
254	0xbba3a2d4	-0.004993776
255	0xbbdadb83	-0.006679

sequential_1/dense_2/BiasAdd/ReadVariableOp:0 f4 [32]
0	0xbd9316c0	-0.071820736
1	0x3c8cec3e	0.017202493
2	0xbba7b9dc	-0.0051185917
3	0x3dab58ef	0.08366572
4	0x3e0f2842	0.13980201
5	0xbd2f7f96	-0.042846285
6	0xbb87b8e6	-0.0041419147
7	0x3de61711	0.11234868
8	0xbb355aee	-0.0027672607
9	0x3d5a7dcd	0.05334263
10	0xbdbd8f1a	-0.0925581
11	0xb9ca5e8d	-0.00038598888
12	0xbd2bef58	-0.041976303
13	0x3e450943	0.19241814
14	0xbc0564c3	-0.008141699
15	0xbc74e1ee	-0.014946444
16	0xbd85b9d7	-0.06529587
17	0x3e81cd20	0.2535181
18	0x3cfccc95	0.030859271
19	0x3dd8d4ba	0.10587449
20	0xb9db7c37	-0.00041863482
21	0x3dfe3aed	0.12413583
22	0xb5c608d4	-1.4754719e-06
23	0x3cb09c61	0.021558942
24	0x3c5ab5c1	0.013348998
25	0xbccf65b9	-0.02531706
26	0x3e319e36	0.17345509
27	0x3d12d3b7	0.03584644
28	0x3c7a7ff3	0.0152892945
29	0x3d721ff4	0.059112504
30	0x3d96c0f7	0.07361024
31	0x3da3d26c	0.07999119
